models_weight/SNet/SNet_model_A_cifar_Adam.pt (torch, 631845 bytes, 8 tensors)

dense1.weight f4 [50, 3072]
0	0x3dc62167	0.0967434
1	0x3d863443	0.06552937
2	0xbe0b5a9f	-0.13608788
3	0xbd4cf42c	-0.050037548
4	0x3e127ab8	0.14304626
5	0x3ce780f4	0.028259732
6	0x3c8caaec	0.017171346
7	0x3da0eabf	0.07857274
8	0x3dc4263d	0.09577606
9	0xbdf51d55	-0.11968485
10	0x3cf022b9	0.029313432
11	0x3d105676	0.035238706
12	0xbd73b770	-0.05950111
13	0xbd8a7999	-0.06761474
14	0x3da31a55	0.07964007
15	0x3e43a764	0.19106823
16	0x3dcbf6d2	0.099591866
17	0x3da297b7	0.079390936
18	0xbd658665	-0.05603637
19	0x3e98d616	0.29850835
20	0x3ec4dcf8	0.38449836
21	0x3d920f30	0.07131803
22	0xbddcfc11	-0.10790265
23	0xbe1d8202	-0.15381625
24	0x3d1c18f3	0.03810973
25	0x3e2e3b29	0.17014755
26	0xbcd3bdf4	-0.025847413
27	0xbe6993fb	-0.22810356
28	0x3de26494	0.1105434
29	0x3bdcd2f4	0.0067390148
30	0xbe24ef10	-0.1610682
31	0xbd91cc89	-0.0711909
32	0xbe82fb3d	-0.25582305
33	0x3d7fdf73	0.062468957
34	0xbe3459db	-0.17612402
35	0xbdf5d904	-0.12004283
36	0x3d859458	0.06522435
37	0x3df9c62f	0.12196004
38	0x3d928227	0.07153731
39	0xbb9eeb75	-0.004849846
40	0x3e39cfa3	0.18145613
41	0xbda5cb50	-0.080954194
42	0xbe9384eb	-0.28812346
43	0x3d62c897	0.05536708
44	0xbe26fbf0	-0.16307044
45	0xbe012521	-0.1261182
46	0x3d843048	0.064545214
47	0x3e5bc333	0.21461181
48	0x3c65d540	0.014027894
49	0x3ce9796b	0.02850028
50	0x3d95a808	0.0730744
51	0xbcec5e76	-0.028853636
52	0xbd65fd94	-0.056150034
53	0xbd8ef2c1	-0.069798954
54	0xbd8fc6b9	-0.07020325
55	0x3d217551	0.039418522
56	0x3e911275	0.28334394
57	0x3e671e30	0.2257011
58	0xbc89f6fd	-0.016841406
59	0xbe243dd4	-0.1603921
60	0x3d6e1c17	0.058132257
61	0x3d8890f9	0.06668276
62	0xbe4abf8a	-0.19799629
63	0xbcfecfc0	-0.031104922
64	0xbe052ec6	-0.13006124
65	0xbccd7d1d	-0.025084073
66	0x3dd0a22a	0.1018718
67	0x3e9dd172	0.30823857
68	0x3e51ce41	0.20488836
69	0x3dcb474f	0.099257104
70	0x3d99d48f	0.075112455
71	0xbe67e891	-0.22647311
72	0x3e485768	0.19564593
73	0x3e02e974	0.12784368
74	0x3e4e1d47	0.20128356
75	0x3ebe9c67	0.372287
76	0x3d05bf73	0.032653283
77	0x3d058e27	0.03260627
78	0x3e277b12	0.16355541
79	0x3ea3d25b	0.31996426
80	0x3e77bf1d	0.24193998
81	0x3e29cd53	0.16582231
82	0x3e1f97d2	0.15585259
83	0xbe92906a	-0.28625804
84	0xbcb1cd6e	-0.021704402
85	0x3e78d1f2	0.24298838
86	0xbc6b6b2e	-0.014368815
87	0xbe7785e2	-0.24172166
88	0xbdfc0b46	-0.12306838
89	0xbe03488f	-0.12820648
90	0xbdbb2ba9	-0.09139187
91	0xbe0a6afe	-0.13517377
92	0x3e2dc7a3	0.16970687
93	0x3ec97df4	0.39353907
94	0x3cd8dc37	0.026472194
95	0x3c6fefd8	0.014644586
96	0xbd6933b2	-0.056934066
97	0xbe869b79	-0.2629049
98	0xbdad1a61	-0.08452297
99	0x3da7a037	0.081848554
100	0xbd1f87a9	-0.038947735
101	0xbda1ef74	-0.07907
102	0x3c91767e	0.017756697
103	0xbcacbd78	-0.02108644
104	0x3e201f8c	0.15637034
105	0xbe0b9ea4	-0.13634735
106	0xbe3ebbd4	-0.18626338
107	0x3d74c20c	0.05975537
108	0xbe9a1456	-0.3009364
109	0xbe56556a	-0.2093102
110	0xbc5715c5	-0.013127749
111	0xbda2d7d0	-0.07951319
112	0x3dd8a1eb	0.105777584
113	0x3d0e48fe	0.03473758
114	0xbcbc6ec5	-0.023002038
115	0xbe09b18d	-0.13446636
116	0x3d461301	0.048357967
117	0x3e03dd5a	0.12877408
118	0xbe1c690e	-0.1527445
119	0x3bb03994	0.0053779576
120	0x3d407741	0.04698873
121	0xbcdb3681	-0.026759388
122	0xbd830391	-0.063971646
123	0xbddce23f	-0.107853405
124	0xbd115739	-0.035483573
125	0x3db2ae24	0.08724621
126	0xbda463ea	-0.080268696
127	0xbe10ff77	-0.14159952
128	0x3ddfdde4	0.10930994
129	0xbc9d2d3a	-0.019186605
130	0xbd888ff2	-0.066680804
131	0x3d82bf63	0.0638416
132	0x3e8b2cce	0.2718262
133	0xbc5dd9b2	-0.013540672
134	0xbdad25be	-0.084544644
135	0x3dac6389	0.08417422
136	0x3e362306	0.17786798
137	0xbe85e355	-0.26150003
138	0xbedc4065	-0.4301788
139	0x3d16774d	0.036734868
140	0xbe8e1833	-0.27752838
141	0xbe5ebc66	-0.21751556
142	0xbe20cccb	-0.15703122
143	0x3dfcfa2f	0.12352406
144	0x3e79f7e8	0.24410975
145	0x3de2090c	0.11036882
146	0x3d979676	0.07401745
147	0x3d9c4997	0.07631224
148	0x3dd26e18	0.10274905
149	0x3d12423f	0.03570771
150	0xbe0a46ea	-0.13503614
151	0xbde2111f	-0.11038422
152	0x3e6a4591	0.228781
153	0x3b7448f5	0.003727493
154	0x3d8cca56	0.0687453
155	0xbe1deeb4	-0.1542309
156	0xbe462673	-0.19350605
157	0xbe6214ff	-0.22078322
158	0xbe438fa4	-0.19097763
159	0x3d79067a	0.060797192
160	0x3e06ff5f	0.13183354
161	0x3daf68c4	0.08564904
162	0x3e27d88e	0.16391203
163	0x3e36190e	0.17782995
164	0x3e79f78c	0.24410838
165	0x3ddb3d18	0.10705012
166	0x3cfc64fd	0.030809874
167	0x3e0047dd	0.12527414
168	0x3e7bd2ce	0.24592134
169	0x3db2499e	0.087054476
170	0x3c292555	0.010323842
171	0x3dc50a91	0.09621156
172	0xbdcd66cf	-0.10029375
173	0x3d12b43d	0.03581642
174	0xbdba7042	-0.09103443
175	0x3df72716	0.12068002
176	0x3dd2cf28	0.10293418
177	0x3e649178	0.22321117
178	0xbe87a009	-0.26489285
179	0xbe9eca64	-0.31013787
180	0xbd24eda2	-0.040265687
181	0x3e81c799	0.25347593
182	0x3ec0c424	0.37649643
183	0x3d01d660	0.031698585
184	0xbc32e499	-0.01091876
185	0xbdc26f95	-0.09493939
186	0x3dcf07a2	0.10108878
187	0x3d9b7529	0.07590706
188	0xbe414666	-0.18874511
189	0xbe7f95e0	-0.24959517
190	0xbc9cb53a	-0.019129384
191	0x3d01ce59	0.03169093
192	0x3e86b258	0.2630794
193	0xbd58f2af	-0.052965816
194	0xbd8ba744	-0.06819013
195	0x3d732c8f	0.059368666
196	0xbcd9d745	-0.026591906
197	0xbe0f4083	-0.13989453
198	0xbe465b71	-0.1937082
199	0x3d27ac34	0.04093571
200	0xbb8b8456	-0.004257719
201	0x3e2e578d	0.17025585
202	0x3ec66035	0.38745275
203	0x3de3c7f5	0.11122123
204	0xbdb14fd4	-0.08657804
205	0xbda515a3	-0.080607675
206	0xbdb6f3d9	-0.08933229
207	0xbe81cb51	-0.2535043
208	0xbe791c42	-0.24327186
209	0x3e60a761	0.2193885
210	0xbe463bb9	-0.1935872
211	0xbd6a734b	-0.05723886
212	0xbd1151a3	-0.035478245
213	0xbd57b0ea	-0.052658953
214	0x3e632808	0.2218324
215	0x3b76628d	0.0037595362
216	0x3dadb56c	0.08481869
217	0x3e52144a	0.20515552
218	0x3eaeebc6	0.34164256
219	0x3d56f18a	0.052476443
220	0xbda6dd70	-0.081477046
221	0x3d92a89c	0.07161066
222	0x3e205e3d	0.15660949
223	0xbde8cc5b	-0.11367103
224	0x3e23d7de	0.16000316
225	0xbe00f809	-0.12594618
226	0xbde8ed40	-0.11373377
227	0xbe03376a	-0.12814108
228	0xbe4fd1c8	-0.20294869
229	0xbeadceb7	-0.33946773
230	0xbef8aa11	-0.4856725
231	0xbee4d831	-0.4469619
232	0x3e848ff7	0.25891086
233	0x3de68d9b	0.11257478
234	0xbde22d4f	-0.11043798
235	0x3e383266	0.17987975
236	0xbd8116c6	-0.06303172
237	0xbe2780c3	-0.16357712
238	0xbe885225	-0.2662517
239	0xbe56758c	-0.20943278
240	0xb9b82d54	-0.00035128987
241	0xbd849b88	-0.06474978
242	0x3d0e56b2	0.034750648
243	0xbd66b98b	-0.05632929
244	0xbd7a939a	-0.06117592
245	0xbdfd39de	-0.12364553
246	0xbe1ca999	-0.15299071
247	0xbeae1bfa	-0.3400572
248	0xbeb3f8d9	-0.35150793
249	0xbd92966f	-0.07157599
250	0x3c449cd2	0.0120002795
251	0xbe13611d	-0.14392515
252	0xbdfd16d3	-0.12357869
253	0x3cd45f78	0.02592443
254	0x3c8bee54	0.017081417
255	0xbe61f843	-0.2206736

dense1.bias f4 [50]
0	0xbf7dc86a	-0.9913393
1	0x3c1ebae0	0.009688109
2	0xbeae88e8	-0.34088826
3	0xbf8bb1a4	-1.0913587
4	0xbf48b930	-0.78407574
5	0xbf65a4b4	-0.8970444
6	0xbfe754f5	-1.8072802
7	0xbeba3569	-0.36368874
8	0x3d73714b	0.059434216
9	0xbf3a7721	-0.72838026
10	0x3eb7b2d2	0.35878617
11	0x3e0bff77	0.13671671
12	0xbdd496c8	-0.10380322
13	0xbf3b71fb	-0.73220795
14	0xbf894d30	-1.0726681
15	0xbfa75972	-1.3074172
16	0x3c9e90e6	0.019356202
17	0x3f3c45b9	0.7354389
18	0xbf17a00a	-0.59228575
19	0xbeffa93e	-0.4993381
20	0x3ecb125f	0.39662454
21	0x3f1fb363	0.623831
22	0xbf36942f	-0.7131986
23	0xbfacd11a	-1.3501313
24	0xbeb46947	-0.3523657
25	0x3db9a445	0.09064535
26	0x3f199328	0.5999017
27	0xbe9f3e01	-0.31101993
28	0xbe5a5fe8	-0.21325648
29	0x3d65befa	0.056090333
30	0xbef57d06	-0.47946948
31	0x3f24b667	0.64340824
32	0x3f29be89	0.6630636
33	0xbf949204	-1.160706
34	0xbe6544bb	-0.223895
35	0x3dd7a4be	0.10529469
36	0xbf7990ad	-0.9748638
37	0xbf0ed63a	-0.55795634
38	0xbeaa550b	-0.33268008
39	0xbf8ed54e	-1.1158845
40	0x3deacf2b	0.114652954
41	0xbf9cdf40	-1.225563
42	0xbdde3bfb	-0.10851284
43	0xbf02b95c	-0.51064086
44	0xbf1dcd34	-0.6164124
45	0xbe5f4a22	-0.21805623
46	0x3f956a4b	1.1673063
47	0xbe8156bc	-0.25261486
48	0x3e8934ee	0.26798195
49	0xbe9c370c	-0.30510747

dense2.weight f4 [40, 50]
0	0xbebb062f	-0.36528155
1	0xbe3f951f	-0.18709229
2	0x3e0dfada	0.13865224
3	0xbe55fb56	-0.20896658
4	0xbe537121	-0.20648624
5	0x3e6aaa53	0.22916536
6	0x3e2bfbd8	0.1679529
7	0xbc8378e5	-0.016048858
8	0x3e617544	0.2201739
9	0x3daf7809	0.08567817
10	0xbf8462e2	-1.0342677
11	0xbd6bd2c3	-0.057574045
12	0x3e327b13	0.17429762
13	0x3e02308a	0.12713829
14	0xbedbb87e	-0.42914194
15	0x3cc4f7b4	0.024043895
16	0xbdb7855d	-0.08960984
17	0x3ea5fb7e	0.32418436
18	0xbdea5558	-0.11442059
19	0xbe0895af	-0.1333835
20	0x3d12586e	0.035728864
21	0xbdaad6ef	-0.083417766
22	0x3e76fc0a	0.24119583
23	0xbd590605	-0.052984256
24	0xbe129834	-0.14315873
25	0x3e13c194	0.14429313
26	0x3e8004bf	0.2500362
27	0xbe0cb196	-0.13739619
28	0x3e345951	0.17612197
29	0xbccd33ed	-0.025049174
30	0xbee6f138	-0.4510591
31	0x3dff9c41	0.12480975
32	0xbf20ae03	-0.6276552
33	0xbea39568	-0.31949925
34	0xbec3f19e	-0.38270277
35	0x3dbe6685	0.09296898
36	0x3e514208	0.20435345
37	0x3d96cf0b	0.07363709
38	0xbdea627f	-0.11444568
39	0x3d0283f9	0.03186414
40	0xbf03a8a5	-0.51429206
41	0x3c9f2cb5	0.019430498
42	0xbdf2ddc6	-0.11858706
43	0xbeb3130a	-0.34975463
44	0xbe5a36aa	-0.21309915
45	0x3e717802	0.23580936
46	0x3cb100ee	0.021606889
47	0x3e9847a8	0.2974217
48	0xbdc82e4b	-0.09774455
49	0x3e8ef2ef	0.2791972
50	0x3e92094a	0.28522712
51	0xbf089252	-0.5334827
52	0xbdd83c38	-0.10558361
53	0xbd68bfc8	-0.05682352
54	0xbe845990	-0.2584958
55	0xbf0b4d86	-0.54415166
56	0xbe073016	-0.13201937
57	0x3e9f19b9	0.31074312
58	0x3e8a2f6c	0.26989305
59	0x3e6d2eb5	0.23162349
60	0x3dd13b58	0.10216397
61	0x3e7ec229	0.24878754
62	0x3e5b0ccf	0.21391605
63	0x3e523d1e	0.20531127
64	0xbe9f2c6e	-0.31088585
65	0x3dc1be02	0.09460069
66	0x3e135009	0.14386
67	0xbde1add6	-0.11019485
68	0xbdfe0c1e	-0.12404655
69	0x39b1f803	0.00033944854
70	0x3e43bc3e	0.19114777
71	0x3da454bc	0.08023974
72	0xbea67adf	-0.32515618
73	0x3e4ea1eb	0.20178954
74	0xbe01d561	-0.12679054
75	0x3d64666d	0.055761743
76	0xbe61d234	-0.22052842
77	0xbe1e7b62	-0.15476754
78	0xbd891b81	-0.06694699
79	0x3e9c3250	0.30507135
80	0x3e25adf1	0.16179635
81	0xbeb14de4	-0.34629738
82	0x3e0bf595	0.13667901
83	0xbc1596a4	-0.009130154
84	0x3e0ee029	0.13952698
85	0xbdffc04b	-0.12487849
86	0xbeea34d4	-0.4574343
87	0xbed6d073	-0.4195591
88	0x3d86e4d2	0.06586613
89	0xbe06a562	-0.13149026
90	0xbdd27bd5	-0.10277525
91	0xbe85bb41	-0.26119426
92	0xbe74dc9b	-0.2391228
93	0xbd5735e7	-0.05254164
94	0x3d2f1704	0.04274656
95	0xbe89cf8b	-0.26916155
96	0xbd53e407	-0.051731136
97	0x3e898a73	0.2686344
98	0x3d204024	0.03912367
99	0xbe719b39	-0.23594369
100	0x3d952845	0.072830714
101	0xbd9a1166	-0.0752285
102	0xbe6ef8b9	-0.23337068
103	0x3ed68bb9	0.41903475
104	0x3e8d2280	0.27565384
105	0x3e3efd5c	0.18651336
106	0xbdf80edb	-0.121122085
107	0x3d38a800	0.045082092
108	0xbeb5abbc	-0.35482585
109	0xbdb48e05	-0.088161506
110	0x3dd17c43	0.10228779
111	0x3e2e4de8	0.17021906
112	0xbc714048	-0.0147247985
113	0x3e76a9fc	0.24088281
114	0xbe1fd063	-0.15606837
115	0xbd6ae2c3	-0.057345163
116	0x3e41d8f1	0.18930413
117	0xbe96f705	-0.29485336
118	0xbe8888b0	-0.26666784
119	0x3e8ed684	0.27898037
120	0x3d943e62	0.07238461
121	0xbf0bdf41	-0.54637533
122	0x3d151d28	0.03640476
123	0x3e0b700e	0.13616964
124	0xbe7eeb28	-0.24894392
125	0xbe030958	-0.12796533
126	0x3df5ab22	0.119955316
127	0x3e305e16	0.17223391
128	0x3e110d09	0.14165129
129	0xbeedda2c	-0.46455514
130	0xbc2a0cbf	-0.0103790155
131	0xbe3dc612	-0.18532589
132	0x3d1d9195	0.038468916
133	0x3d954e51	0.07290328
134	0x3e90a6d3	0.28252277
135	0x3c203e76	0.009780517
136	0x3e7306ea	0.23733106
137	0xbe2bf9b5	-0.16794474
138	0x3c1b942d	0.009495777
139	0xbdffbe8d	-0.124875166
140	0x3eb23080	0.34802628
141	0x3e1ee87c	0.15518373
142	0x3db1debe	0.08685063
143	0x3c99d802	0.018779758
144	0x3e3a84f4	0.1821478
145	0xbeb663d1	-0.3562303
146	0x3e87b9d8	0.26508975
147	0x3dd69620	0.10477853
148	0x3e568a95	0.20951302
149	0x3e998e39	0.2999132
150	0x3cfdb073	0.030967927
151	0xbecad3fd	-0.3961486
152	0x3e481297	0.19538341
153	0x3e561fe0	0.20910597
154	0x3e128765	0.14309461
155	0x3e213b0f	0.15745185
156	0x3c233f08	0.009963758
157	0xbef38afe	-0.4756698
158	0x3e31446c	0.17311257
159	0x3db662c8	0.0890556
160	0xbd8f384a	-0.06993158
161	0xbe7a64e9	-0.24452557
162	0xbebd960e	-0.37028545
163	0x3d5cfef6	0.053954087
164	0xbf4d5abc	-0.80216575
165	0xbe55f42f	-0.2089393
166	0xbe720db2	-0.23638037
167	0xbecf2f48	-0.4046576
168	0x3e1070aa	0.14105478
169	0xbe30d963	-0.17270426
170	0xbe80369a	-0.25041658
171	0xbcc4941d	-0.023996407
172	0x3e462385	0.19349487
173	0xbc9ca915	-0.019123593
174	0xbd69c4c4	-0.057072416
175	0x3ddf2db6	0.108973905
176	0x3d33c0a3	0.043884885
177	0x3f01c025	0.50683814
178	0x3e69c11f	0.22827576
179	0xbd4ac0ef	-0.049500402
180	0x3e2d4e59	0.16924419
181	0x3c0897bc	0.008336958
182	0xbe991de2	-0.2990561
183	0x3d94116d	0.07229886
184	0x3dbbbb65	0.09166602
185	0x3e98ab28	0.29818082
186	0xbe84f80f	-0.25970504
187	0x3dcf9ac1	0.10136939
188	0x3e949894	0.29022658
189	0x3db55f1a	0.0885603
190	0x3f100bae	0.5626782
191	0xbe955103	-0.2916337
192	0xbe267bea	-0.16258207
193	0x3df7bccb	0.12096556
194	0xbe624ad4	-0.22098857
195	0xbd8e7f8e	-0.06957923
196	0x3d9650f2	0.07339658
197	0xbe009965	-0.12558515
198	0x3e6edb42	0.23325828
199	0x3e74d9f4	0.23911268
200	0xbd18da61	-0.037317637
201	0x3d311ae0	0.04323852
202	0x3c47232a	0.01215438
203	0x3dfd9927	0.12382727
204	0x3e957d35	0.29197088
205	0x3e0da8dd	0.13833947
206	0x3c984892	0.018589292
207	0x3d49f414	0.049305037
208	0x3a244272	0.00062660046
209	0xbe17badc	-0.14817375
210	0xbdc8d305	-0.09805874
211	0x3e27cdd5	0.16387112
212	0xbea3b78e	-0.3197598
213	0x3ccd77be	0.025081512
214	0xbd25afb0	-0.04045075
215	0x3e1472d8	0.14496934
216	0x3e2d67c7	0.16934119
217	0xbe84439c	-0.25832832
218	0x3de3f29a	0.11130257
219	0xbdb0fe0e	-0.08642207
220	0xbe3055fb	-0.17220299
221	0xbda857d7	-0.08219879
222	0x3f011138	0.504169
223	0x3ee0ee3f	0.43931767
224	0xbe2d21d5	-0.16907437
225	0x3e8cc014	0.27490294
226	0xbd9133bf	-0.07089948
227	0xbd1e29aa	-0.038613953
228	0xbdef65ed	-0.11689363
229	0xbe809b3d	-0.25118437
230	0xbe447a3c	-0.19187254
231	0x3d8b4c45	0.06801657
232	0xbe2c94db	-0.16853659
233	0x3e401b12	0.18760327
234	0x3e4e2671	0.20131852
235	0xbe04e465	-0.1297775
236	0x3e63184e	0.2217724
237	0x3e62c22c	0.22144383
238	0xbdfd7e6a	-0.12377627
239	0x3e744a8c	0.23856562
240	0x3e34cd90	0.17656541
241	0x3da73dbd	0.081660725
242	0xbe88941a	-0.26675493
243	0xbdde7f35	-0.108641066
244	0x3e438a6c	0.19095773
245	0x3d95ee5d	0.07320855
246	0x3e247c3c	0.16063017
247	0x3da14f98	0.078765094
248	0x3e948754	0.29009497
249	0xbc92c6ea	-0.017917115
250	0x3db5e596	0.08881681
251	0xbf091763	-0.5355131
252	0x3dd767ea	0.10517867
253	0x3e2ede71	0.17077042
254	0xbcafcc50	-0.021459728
255	0x3e860a17	0.26179573

dense2.bias f4 [40]
0	0x3f0d4bc7	0.5519375
1	0xbf5502af	-0.8320722
2	0x3e69335c	0.22773498
3	0x3d9c73cf	0.07639276
4	0xbe8e3bf9	-0.2778013
5	0xbf189d43	-0.5961496
6	0x3d074e32	0.033033557
7	0xbe367514	-0.178181
8	0x3fd833f9	1.6890861
9	0x3f2ca346	0.67436635
10	0xbfb0deff	-1.3818053
11	0x3f71df8f	0.9448175
12	0x3ef2dbf8	0.47433448
13	0xbf33e9b0	-0.70278454
14	0xbf6482a9	-0.8926187
15	0x3eb0fa75	0.34566084
16	0xbf0ad0cc	-0.5422485
17	0xbef8cb6c	-0.485927
18	0x3fd768ed	1.6828896
19	0x3f001ead	0.5004681
20	0x3f4ff0ff	0.81227106
21	0x3f79d30c	0.97587657
22	0x3f0dc84b	0.5538375
23	0x3e1a5f5a	0.15075436
24	0x3f4395e8	0.76400614
25	0x3ecebdae	0.4037909
26	0x3f313215	0.69217044
27	0x3f19bd2b	0.6005427
28	0x3f927c97	1.1444272
29	0x3f359047	0.70923275
30	0xbea6fc3f	-0.32614323
31	0x3e135114	0.14386398
32	0x3fec0b99	1.8441039
33	0x3f6efb3b	0.933521
34	0x3f1588db	0.5841195
35	0xbf77018c	-0.96486735
36	0x3ed73599	0.4203308
37	0x3fb36ca9	1.4017535
38	0x3e926b0b	0.28597292
39	0xbed43d5b	-0.4145306

dense3.weight f4 [30, 40]
0	0x3d7de638	0.06198713
1	0x3ed94f89	0.42443493
2	0x3e1c269b	0.15249102
3	0x3f055965	0.5208953
4	0x3e095533	0.13411407
5	0x3e1a84cf	0.15089725
6	0xbdb58d83	-0.08864882
7	0xbec2437c	-0.37942111
8	0x3e13a7b2	0.1441944
9	0x3e60463a	0.2190179
10	0xbd0e909f	-0.03480589
11	0xbf4a5cb6	-0.79047716
12	0xbea51c7e	-0.322483
13	0x3c1b8c87	0.009493954
14	0xbeb5eae0	-0.35530758
15	0xbe3afd61	-0.18260719
16	0xbe861521	-0.26187995
17	0x3e739c91	0.23790194
18	0xbe469e95	-0.19396432
19	0x3dbd43b7	0.09241431
20	0xbecb9fe8	-0.39770436
21	0xbd3bb8ff	-0.045830723
22	0xbcbcc45b	-0.023042848
23	0x3d102261	0.035189036
24	0xbe9d1851	-0.30682614
25	0xbf0adb3b	-0.5424077
26	0xbec6cb05	-0.38826767
27	0xbe397705	-0.18111809
28	0x3cea29ea	0.02858444
29	0x3e11714a	0.14203373
30	0xbef56f51	-0.4793649
31	0x3df9d457	0.12198704
32	0xbe0a4abc	-0.13505071
33	0xbec25cc6	-0.37961406
34	0x3d886c02	0.06661226
35	0x3ddcc96f	0.10780608
36	0xbedbae4f	-0.42906424
37	0x3e5d79b4	0.21628457
38	0xbd93f8f2	-0.07225217
39	0x3e26bc62	0.162828
40	0xbec06381	-0.37575915
41	0x3cf1dcac	0.02952417
42	0x3c271712	0.0101983715
43	0xbec49c58	-0.3840053
44	0xbe327949	-0.17429079
45	0x3be9826f	0.0071261446
46	0xbdc2329b	-0.094823085
47	0x3e360e82	0.17778972
48	0xbe8c77ab	-0.2743505
49	0xbe251714	-0.16122085
50	0x3d0869cd	0.033304024
51	0xbd8704a9	-0.06592686
52	0xbe76fb18	-0.24119222
53	0x3d8de0e8	0.06927663
54	0x3e599fe8	0.21252406
55	0x3dee12db	0.1162469
56	0x3e540a77	0.20707117
57	0xbea7ae59	-0.32750204
58	0xbec134cf	-0.37735602
59	0xbd930d1f	-0.07180237
60	0xbe94c490	-0.29056215
61	0x3d0fd4ce	0.035115056
62	0xbf1bd230	-0.60867596
63	0xbe8ff1b9	-0.28114107
64	0xbe8a4138	-0.27002883
65	0x3dbc5449	0.091957636
66	0xbe2df9ae	-0.16989776
67	0xbdf29869	-0.11845476
68	0xbecbcc1f	-0.3980417
69	0x3eea6e2d	0.45787182
70	0x3de00882	0.10939123
71	0x3eba7e20	0.3642435
72	0xbe76df75	-0.2410868
73	0xbd16f680	-0.036856174
74	0x3e46ad8e	0.19402143
75	0x3ecab70b	0.39592776
76	0xbdef963e	-0.11698578
77	0x3ee8fbc5	0.45504585
78	0x3d090e77	0.03346106
79	0x3ccd34f1	0.025049658
80	0x3e0bb31e	0.13642547
81	0xb98416fb	-0.00025194124
82	0x3d8c1ed0	0.068418145
83	0xbca58e26	-0.020209383
84	0x3e21f6ce	0.15816805
85	0x3f2b001d	0.6679705
86	0xbe8a853a	-0.2705477
87	0xbd799b73	-0.060939264
88	0x3d8fbd5a	0.07018538
89	0x3d4330f7	0.04765412
90	0xbe77dff5	-0.24206527
91	0x3a506903	0.0007950218
92	0x3dc1e7d4	0.09468046
93	0x3ef5a4c9	0.47977284
94	0x3e681a75	0.22666343
95	0xbeaf8236	-0.3427903
96	0xbe3bb7ac	-0.18331784
97	0xbb9e3038	-0.0048275255
98	0xbdf53e74	-0.119748026
99	0x3e8b2443	0.27176103
100	0xbd49f923	-0.04930986
101	0xbd6d36aa	-0.05791346
102	0x3e6bcdda	0.23027745
103	0x3d4299a1	0.047509793
104	0x3dd35a47	0.103199534
105	0xbed38814	-0.41314757
106	0xbd153bc8	-0.036433965
107	0x3d429e73	0.04751439
108	0x3ecf5a5d	0.4049863
109	0xbe166c04	-0.14689642
110	0x3cae8810	0.021305114
111	0xbd2f5ff3	-0.042816114
112	0x3e3a6f45	0.18206508
113	0x3dc0166c	0.09379277
114	0xbe1eec9f	-0.15519951
115	0x3e817776	0.25286454
116	0xbdabcb8b	-0.08388432
117	0xbd87796e	-0.06614958
118	0xbdd10662	-0.102062955
119	0xbda31be4	-0.07964304
120	0x3e86ec02	0.26351935
121	0xbe7bd5f3	-0.24593334
122	0xbe7fa9b5	-0.24967082
123	0xbe0341ea	-0.12818113
124	0x3dae7bba	0.08519693
125	0xbe9fee9b	-0.3123673
126	0xbe439b35	-0.19102176
127	0xbc190763	-0.00934014
128	0xbcbb3c6d	-0.022855962
129	0x3dd428af	0.10359322
130	0xbdf72ca3	-0.12069061
131	0x3e0ce6aa	0.13759866
132	0xbce387af	-0.02777466
133	0xbd747f37	-0.059691634
134	0xbe145450	-0.14485288
135	0xbe87a961	-0.26496413
136	0xbd75c9d6	-0.06000694
137	0xbe68725e	-0.22699878
138	0x3d1d30b7	0.038376536
139	0x3e90ab73	0.28255805
140	0x3d19e20d	0.037569094
141	0x3eb74333	0.35793456
142	0xbcc42bae	-0.02394661
143	0xbe908e85	-0.28233734
144	0xbf362f3d	-0.7116583
145	0xbd9e7c50	-0.077385545
146	0x3da3e426	0.080025
147	0x3e036669	0.12832035
148	0x3c248b8c	0.010043036
149	0x3d8b0dad	0.06789718
150	0x3daf3d9d	0.08556674
151	0xbe0d3557	-0.13789879
152	0x3e505b57	0.20347343
153	0xbdf56459	-0.119820304
154	0x3d7ffebd	0.062498797
155	0x3dfe4c65	0.12416915
156	0x3e84ff4f	0.25976035
157	0x3dc880a8	0.09790164
158	0x3e4f26a0	0.20229578
159	0xbe091927	-0.13388501
160	0x3db8375a	0.089949325
161	0x3ea9725e	0.33095068
162	0x3dbdcccd	0.09267578
163	0x3ea9d92a	0.33173496
164	0x3df55a09	0.119800635
165	0xbd7b4c28	-0.061351925
166	0xbe5a1b6e	-0.21299526
167	0x3e593493	0.21211462
168	0x3d705f1e	0.05868446
169	0xbdcf7104	-0.10128978
170	0x3dac56e5	0.08415011
171	0x3e9247f3	0.28570518
172	0xbe037d48	-0.1284076
173	0xbe4dd63e	-0.20101258
174	0x3e2def34	0.1698578
175	0x3c03fad1	0.008055405
176	0x3ebec5ee	0.37260383
177	0x3e364604	0.17800146
178	0xbef1949f	-0.471837
179	0x3d557a71	0.052118722
180	0x3e00a0eb	0.12561385
181	0xbe1551db	-0.14582007
182	0xbda0c7ad	-0.07850585
183	0xbd671832	-0.05641956
184	0x3d9294d9	0.07157297
185	0x3dc5f387	0.0966559
186	0x3c97ff49	0.018554347
187	0xbe7a0966	-0.24417648
188	0x3e755cfa	0.23961249
189	0x3e81d18e	0.2535519
190	0x3d9e6872	0.07734765
191	0x3d88cfd3	0.06680264
192	0xbe7b53e2	-0.24543718
193	0x3e73ec10	0.2382052
194	0x3dae14e3	0.085000776
195	0x3edacd0c	0.42734563
196	0xbcf235e5	-0.029566715
197	0xbe8d4562	-0.27591997
198	0x3e58abba	0.21159258
199	0x3decf59f	0.11570286
200	0x3e8f5294	0.2799269
201	0x3e0853f4	0.13313276
202	0x3e972300	0.2951889
203	0xbea89e33	-0.32933196
204	0x3d0fe019	0.035125826
205	0xbf0f4120	-0.5595875
206	0xbe640147	-0.22266112
207	0xbe228856	-0.1587232
208	0xbe24cf89	-0.16094793
209	0x3e4deb29	0.20109238
210	0xbdf4b753	-0.11949029
211	0x3ef22e2d	0.47300854
212	0x3e0b10ab	0.13580577
213	0x3dab5148	0.083651125
214	0xbd27882d	-0.04090135
215	0xbcd688fc	-0.026188366
216	0x3c846f58	0.016166374
217	0xbbcfa58d	-0.006336874
218	0xbe357cb9	-0.17723359
219	0x3de6da35	0.112720884
220	0x3dcb8f86	0.09939484
221	0xbd572d11	-0.052533213
222	0x3e87ee16	0.26548833
223	0x3e17fd03	0.1484261
224	0x3cd368fb	0.025806895
225	0xbe1b3469	-0.15156712
226	0x3d22a96f	0.039712366
227	0xbea96b2d	-0.3308958
228	0x3e8f3552	0.27970368
229	0x3e56f89d	0.20993276
230	0xbe0f87c3	-0.14016633
231	0x3dbf8d2c	0.09353098
232	0x3e99e6b3	0.30058822
233	0xbeb76496	-0.35818928
234	0x3e9162f4	0.28395808
235	0xbe48834b	-0.19581334
236	0xbd7c3595	-0.061574537
237	0xbee00628	-0.43754697
238	0xbd99983b	-0.07499739
239	0x3da180fa	0.078859285
240	0xbec72b8a	-0.38900405
241	0xbe927972	-0.2860828
242	0x3c471d6d	0.012153012
243	0x3e9d3d9d	0.3071107
244	0x3e440dd2	0.19145897
245	0xbd54554c	-0.051839158
246	0xbe2c5e8c	-0.16832942
247	0xbe0a3678	-0.1349734
248	0xbe473363	-0.19453196
249	0xbeac8327	-0.3369381
250	0x3e7b54b0	0.24544024
251	0x3e073608	0.13204205
252	0x3e923811	0.285584
253	0x3e82abc3	0.2552167
254	0x3e735d88	0.23766148
255	0x3eb22c60	0.3479948

dense3.bias f4 [30]
0	0x3eff516f	0.49866816
1	0xbe5c3a89	-0.21506704
2	0x3f5fc828	0.8741479
3	0x3f6abab2	0.91691124
4	0xbf0aa6f1	-0.5416098
5	0x3f21aa6c	0.6315067
6	0xbf4972e7	-0.7869095
7	0x3f270a52	0.6525012
8	0x3ebed332	0.37270504
9	0x3ce13145	0.027489314
10	0xbcbb1ccc	-0.02284088
11	0x3f0fe4b3	0.5620834
12	0x3e7bfb72	0.24607638
13	0x3f2243e0	0.6338482
14	0x3f2def60	0.6794338
15	0x3f19e877	0.6012034
16	0x3f1f5e5e	0.6225337
17	0x3e6a651c	0.22890133
18	0xbd8a0ad9	-0.0674035
19	0x3fcb21b6	1.5869663
20	0x3e959287	0.29213354
21	0x3e44bcdb	0.19212668
22	0xbf3ed4d9	-0.7454353
23	0x3e8a1e19	0.26976088
24	0x3f89cda5	1.0765883
25	0x3f981e72	1.1884291
26	0x3e2274be	0.15864846
27	0x3e12cc11	0.14335658
28	0x3f8740bf	1.0566634
29	0x3fd3ae49	1.6537563

dense4.weight f4 [10, 30]
0	0xbe7c50c3	-0.24640183
1	0xbf46a0cd	-0.7758911
2	0xbd1dd0e3	-0.038529288
3	0xbe5c8b72	-0.21537569
4	0x3e298f81	0.16558649
5	0x3d183e06	0.037168525
6	0xbe153ec9	-0.14574732
7	0x3e2157cf	0.15756153
8	0x3e80c7ed	0.2515253
9	0x3e791795	0.24325402
10	0xbe5d0c7e	-0.21586797
11	0x3d7d858d	0.061894942
12	0x3dc9191c	0.09819242
13	0xbda7550c	-0.08170518
14	0xbed0c1d9	-0.40772894
15	0x3cf81a27	0.030285908
16	0xbedd9a38	-0.43281722
17	0x3d814476	0.06311886
18	0x3eb5702f	0.35437152
19	0x3dbe14e4	0.09281328
20	0xbab7fe33	-0.0014037549
21	0x3e51eff3	0.2050169
22	0xbdc8d044	-0.098053485
23	0xbed22786	-0.4104578
24	0xbd19c90c	-0.03754525
25	0xbdb23e5f	-0.087033026
26	0xbe568f54	-0.20953113
27	0xbe1986de	-0.14992854
28	0xbd61454d	-0.05499773
29	0x3df1a4c0	0.11799002
30	0xbe3b70f9	-0.18304814
31	0x3ea7c2e3	0.32765874
32	0xbe7f3790	-0.24923539
33	0x3b8f9388	0.004381601
34	0x3e314371	0.17310883
35	0xbe0cc7fd	-0.13748164
36	0x3ec10061	0.37695602
37	0x3e2765e5	0.16347463
38	0xbeaa5a58	-0.33272052
39	0xbdcb5386	-0.0992804
40	0xbccfd4a1	-0.025369944
41	0xbecf2dcf	-0.40464637
42	0x3e8076fb	0.25090775
43	0x3dfd7a3d	0.12376831
44	0xbee31bda	-0.44357187
45	0xbe19d174	-0.15021306
46	0xbe0c3edf	-0.13695858
47	0xbe838e52	-0.2569452
48	0xbd96a783	-0.07356169
49	0xbe8f9040	-0.28039742
50	0x3ea14198	0.31495357
51	0x3e6d8f24	0.23199135
52	0x3e923eb9	0.2856348
53	0xbe5427a6	-0.2071825
54	0xbe522066	-0.20520172
55	0xbd49fbda	-0.04931245
56	0x3e5cb68b	0.2155401
57	0xbea71e03	-0.32640085
58	0xbee375ba	-0.44425756
59	0xbf3ab177	-0.7292704
60	0x3eb1d491	0.34732488
61	0xbd6852d2	-0.05671961
62	0xbdc67aa8	-0.096913636
63	0x3daa9b47	0.08330398
64	0x3d8fe6f8	0.07026476
65	0xbe489f0b	-0.1959192
66	0xbdc00df4	-0.09377661
67	0xbdf6bb7e	-0.1204748
68	0xbd9222ec	-0.07135567
69	0x3e8a0b27	0.26961634
70	0xbe6bf8f7	-0.23044191
71	0x3e096cf3	0.13420467
72	0xbec359a9	-0.38154343
73	0xbe535441	-0.20637609
74	0xbe876d6f	-0.2645068
75	0xb7494dff	-1.19986935e-05
76	0x3e7a7f89	0.24462713
77	0xbe8c7d7a	-0.2743948
78	0xbe3cf15f	-0.18451451
79	0x3ec533eb	0.38516173
80	0xbe0677d8	-0.13131654
81	0xbd24d8c1	-0.040245775
82	0xb6f0be55	-7.174715e-06
83	0x3e721c31	0.23643567
84	0x3e8261dc	0.25465286
85	0x3e6ea288	0.23304188
86	0xbe55569e	-0.20833823
87	0xbe47ed63	-0.1952415
88	0x3e503591	0.20332934
89	0x3e9b839a	0.30373842
90	0xbef58738	-0.47954726
91	0xbea264cb	-0.31717524
92	0xbd8ad28d	-0.067784406
93	0x3e3e07ac	0.18557614
94	0xbd9fa32b	-0.07794794
95	0x3d76cc70	0.06025356
96	0xbc63c8c6	-0.013902849
97	0xbe929320	-0.28627872
98	0xbc844ad0	-0.016148955
99	0x3d20257f	0.03909826
100	0x3e6d2ea1	0.23162319
101	0x3e323708	0.17403805
102	0xbed5d40f	-0.4176335
103	0x3dbf8309	0.09351165
104	0xbde3c918	-0.1112234
105	0x3e211701	0.15731432
106	0x3e215e80	0.15758705
107	0xbc786402	-0.0151605625
108	0x3dbd4d8b	0.09243306
109	0xbe742480	-0.23842049
110	0x3e34b8ea	0.17648664
111	0xbe2f7c6f	-0.17137311
112	0xbd8321b6	-0.06402914
113	0x3e64939c	0.22321934
114	0xbe0276ba	-0.12740603
115	0xbda134ae	-0.07871376
116	0xbc3e18c2	-0.011602582
117	0x3d8f484d	0.06996212
118	0xbe08b411	-0.1334994
119	0xbdd80910	-0.105486035
120	0x3c8fdd69	0.017561631
121	0xbebe03ea	-0.3711236
122	0x3d8e5b3d	0.06950996
123	0x3ddedccf	0.1088196
124	0xbed7d8db	-0.42157635
125	0xbed6fe89	-0.4199107
126	0xbf18fdaa	-0.5976206
127	0x3ee1ddaa	0.4411443
128	0xbd289f6f	-0.041167673
129	0xbe1abdba	-0.15111437
130	0x3c713b7a	0.014723653
131	0xbe09cffb	-0.13458245
132	0xbdcf5faa	-0.10125668
133	0xbc85e254	-0.016343273
134	0x3d9b1329	0.07572014
135	0x3e465627	0.19368802
136	0x3d85f676	0.06541149
137	0xbde746cf	-0.112928025
138	0x3d406d11	0.046979014
139	0x3e0b37e1	0.13595535
140	0x3e9b0404	0.302765
141	0xbd101de4	-0.035184756
142	0xbe8478e4	-0.25873482
143	0x3e65ec72	0.22453478
144	0x3ef8fb93	0.48629436
145	0xbe5f4485	-0.21803482
146	0x3d9b3553	0.0757853
147	0x3e39d6ae	0.181483
148	0x3e23baf3	0.15989284
149	0x3db212c7	0.08694988
150	0xbea40acd	-0.3203949
151	0xbe440fec	-0.19146699
152	0x3cc212b9	0.023690568
153	0xbe4b629f	-0.1986184
154	0xbe4b5d16	-0.19859728
155	0xbd03f718	-0.03221807
156	0xbdd19907	-0.10234266
157	0xbead64a0	-0.33865833
158	0xbcf4b5c3	-0.029871827
159	0x3e11ae33	0.14226608
160	0x3e6db358	0.23212945
161	0x3df8d4df	0.12149977
162	0xbecbf17c	-0.39832675
163	0x3f096492	0.53669083
164	0xbe7b1392	-0.24519184
165	0xbdbc7baf	-0.09203278
166	0xbd662340	-0.05618596
167	0xbe33133e	-0.17487809
168	0x3c9ad5b9	0.018900739
169	0xbe954c45	-0.29159752
170	0x3e885690	0.26628542
171	0xbecdbc9e	-0.40182966
172	0xbd1ed983	-0.038781654
173	0x3e3fbcb0	0.18724322
174	0xbe0cd598	-0.13753355
175	0x3e4858f0	0.19565177
176	0x3e81ca3a	0.253496
177	0x3e5a5cfd	0.21324535
178	0x3e15841e	0.1460118
179	0x3ccf4ec6	0.025306117
180	0xbedcefba	-0.43151647
181	0x3e386ac7	0.18009482
182	0x3e5cf936	0.21579441
183	0x3ead17d3	0.3380724
184	0xbe8d638e	-0.27615017
185	0x3c86c165	0.01644964
186	0xbd8fd6fb	-0.07023426
187	0xbcf10c5e	-0.029424842
188	0xbf2c8fae	-0.6740674
189	0xbe36f33c	-0.17866224
190	0xbe8c7190	-0.2743039
191	0x3dfb8f2c	0.12283167
192	0xbee0495f	-0.43805978
193	0x3e32afa3	0.17449813
194	0x3e7ad100	0.2449379
195	0xbec8c5e0	-0.39213467
196	0x3e5f5d21	0.2181287
197	0x3eafb141	0.34314921
198	0xbe0da7dd	-0.13833566
199	0xbb4a9053	-0.0030908778
200	0xbecb8331	-0.3974853
201	0xbe07fc98	-0.1327995
202	0xbcfabb18	-0.030606791
203	0xbedbd442	-0.42935377
204	0xbd3ba399	-0.045810316
205	0x3f0420e7	0.51612705
206	0x3e02b263	0.12763362
207	0xbe0c1244	-0.13678843
208	0x3eb195a9	0.34684494
209	0xbd290263	-0.04126204
210	0x3f12f5a3	0.5740606
211	0xbd16329f	-0.03666937
212	0xbc8397ce	-0.016063597
213	0xbdb50884	-0.08839515
214	0x3d3accfa	0.045605637
215	0x3dbae94e	0.091265306
216	0xbe77b8d9	-0.24191608
217	0xbef5d8be	-0.48016924
218	0x3eada872	0.33917576
219	0xbe7b3c65	-0.24534757
220	0x3d5759f7	0.05257603
221	0x3d671df6	0.056425057
222	0xbf145f7b	-0.5795819
223	0xbe7408f4	-0.2383154
224	0x3e6fe99a	0.23428956
225	0x3e9f1e50	0.31077814
226	0x3bb8f50d	0.0056444467
227	0xbd57bff2	-0.052673288
228	0x3d38cd57	0.045117702
229	0xbeefbf6f	-0.4682574
230	0xbebbb12d	-0.36658612
231	0xbe457e7d	-0.19286533
232	0x3e276a85	0.16349228
233	0x3e6cfb53	0.23142748
234	0xbe786f42	-0.24261191
235	0xbf032a6e	-0.5123662
236	0xbe325670	-0.17415786
237	0x3db4e945	0.08833555
238	0xbd2cb0cb	-0.04216079
239	0x3ce1eeb5	0.027579645
240	0xbed127ce	-0.4085068
241	0x3df4de38	0.11956447
242	0x3e97eeb1	0.29674295
243	0xbd47ca95	-0.04877718
244	0x3e203537	0.156453
245	0x3eb2ef35	0.34948125
246	0x3e4c71a2	0.19965222
247	0x3e39a7a7	0.1813036
248	0x3dcf86bd	0.10133121
249	0xbce0a703	-0.027423387
250	0x3dc4a610	0.096019864
251	0xbe2f75d3	-0.1713479
252	0x3e90fea5	0.28319278
253	0xbf8c74fb	-1.09732
254	0xbe1dbeb7	-0.15404783
255	0xbf00707d	-0.50171643

dense4.bias f4 [10]
0	0x3e9403fd	0.28909293
1	0xbedd6925	-0.4324428
2	0x3e72bcc6	0.23704824
3	0x3e0e44e0	0.13893461
4	0x3f00b9d4	0.5028355
5	0xbe3487d8	-0.17629945
6	0x3f14e6f6	0.5816492
7	0xbea470d3	-0.32117328
8	0x3ef2854c	0.47367322
9	0xbf3a40da	-0.72755206
