models_weight/SNet/SNet_model_A_fashion_Adam.pt (torch, 174329 bytes, 8 tensors)

dense1.weight f4 [50, 784]
00000000: df59 cdbf 8eab 43bf 6fcd fcbb 95a0 a43e
00000010: e055 82bf 4d47 27bf 1d3b 8d3c 94f8 243f
00000020: e0d3 34bf ae61 a6bd ed40 28bc 3b1b 133e
00000030: 0b80 dfba 1fe3 acbf 9e54 7ebf c1bf 9cbe
00000040: 0aff 663e f1b5 323d 64ad 1e3e eb8d 36bf
00000050: fc87 cfbc 9c1d 123e 6b62 b1be a9dd b6bf
00000060: da81 b83d d60b 5dbf cea1 b9be b37f 4ebf
00000070: 7efe 74bf 7bd2 a43e c564 0dbf 324f 1b3f
00000080: ecdc 12bf 62eb b6bd 6d30 293e a946 ac3e
00000090: 8afd 80be 770f 433e a5b5 7c3e c552 c83d
000000a0: 9166 97bc 57f3 76b9 80be 60be 858b f1bc
000000b0: ca87 273e 49a4 f63d a827 fb3d bd65 c63e
000000c0: 9b50 d53e 2131 ba3e 4d09 5fbe cb8d 97be
000000d0: d469 613d 262c 793d 40e6 3fbe c53f e73c
000000e0: d532 373e cec8 90bf f637 1ebf 5f56 d73e
000000f0: f920 b73d 1ad7 f83d c8f8 d33c 239f b23e
00000100: b810 f63d a271 223f 79d8 bc3e 00e7 023d
00000110: 33c3 01be fda0 7e3d 9008 ca3d b88b 1ebe
00000120: c7f5 cbbd 0a92 af3d 03c0 a43e 46b4 c33e
00000130: fe89 123f 024d d63c 9eb9 7e3e 193f 09bf
00000140: 2a2f 1a3f d144 08be 079d 08bf 558d 3bbe
00000150: 9581 b6bf 11a8 e9be a723 ff3d d82e 4e3d
00000160: 88f9 79bd 2b3c b7be d830 813e 2143 06bd
00000170: 981f ecbc 5a0a c63e c7dd 723d a4e2 8dbd
00000180: 353b 1f3e a6f2 6eba a8dc f83d ec42 aebe
00000190: 5b37 0ebe 07fc 14bd e4dd 193e a4a8 d43d
000001a0: c3e0 81be 0201 08bd a461 3f3e e523 db3e
000001b0: bb6d f5bd 0cb6 debe 21ed dbbe 5d81 0ebf
000001c0: f352 10bf 02f6 9ebe eb08 e8be 8d1b d5bd
000001d0: df32 1bbe bf41 3d3d a156 543e f4bb dfbe
000001e0: 0631 08be 2626 093c 851b b0bd be4f cb3c
000001f0: f3a4 bb3e 6e5d c1bd 4693 0d3e 9a3a 043e
00000200: 43a6 bd3d 790c 6e3e 8fac 893d 9b99 8cbd
00000210: 8db8 613e ba90 9ebd ff89 023f e15f 1e3f
00000220: 4280 433e d776 a3be 3504 f8be 2a51 09be
00000230: ceb8 80bd 50d0 dabe 200f 0dbe 247f e5bd
00000240: 63a0 a0bb f902 ad3e e6e5 4e3e 9895 c6bd
00000250: 39b0 f9bd d4e4 7ebe 651b c0bd d93b 0ebe
00000260: e97f b73d ad5b 2bbe fe1a 50be 478f 773e
00000270: 65cb 423d df4b a83e 10f2 edbd 5d5e 41be
00000280: 5c38 fe3c 4f3e 133e a94e 593e 5acb f93e
00000290: 6416 853e 78f6 a73d 8c38 0dbf 817b 0e3f
000002a0: f5bc 133f fe5a afbe 3fec 123e 5035 71be
000002b0: 0f5d 80be 68c1 ee3d 4963 783d 4a93 0ebe
000002c0: 4d6d d5bd c989 42bd fb78 09be f4c2 a1be
000002d0: a7c0 5cbe 7c49 abbd 07c0 c1bd 49df 003d
000002e0: c925 173d a51e 9bba 4759 033e ed21 cb3c
000002f0: c547 11be be74 373e f9b0 323e d946 d53e
00000300: 4177 1c3e 475c 923e c01b 22be 2547 64bf
00000310: b1e8 f73e 031f 9b3e 6347 9e3e 8bb3 37be
00000320: a8a1 a6be a931 ec3d 9199 dd3d d2b8 3a3d
00000330: e22b 1b3e dc60 493d e3af 81be 7ea0 a5be
00000340: bf63 0a3e fb65 ba3d f0d8 edbe 0424 043e
00000350: 6708 a0bc ae03 063d 2cd1 3dbe 7d53 5b3e
00000360: f6e9 d23d 7805 3f3e ef3f 463e 29c5 9ebd
00000370: ab8d 5b3e 1e36 b83e b987 4bbd 8ba6 95bf
00000380: ce6c 313f cf93 da3e 1718 213f 94ed 033d
00000390: e3d6 553e a210 a7bc c2ac 1d3d 3c4d 7ebc
000003a0: ef50 2ebe 7b9b 15be b300 c8be 0a2e 59bd
000003b0: db60 173e bfc5 5d3d a6af 6dbe e04c d93d
000003c0: daf6 55be 7b18 393d 1a4c 13be d597 2abe
000003d0: 2e06 92be 960e 01bc 1827 c73e 286f 453e
000003e0: e764 1d3e a37b debc 08c0 113f af75 adbe
000003f0: 7cf2 0b3f 2d33 663f 5586 273e beb2 8f3e
-1.6043051 -0.76433647 -0.0077149193 0.32153764 -1.0182457 -0.6534317 0.017240101 0.644418
-0.70635796 -0.081241 -0.010269386 0.14365856 -0.001705171 -1.3506812 -0.99347866 -0.30615047
0.22558227 0.043630544 0.15495831 -0.713103 -0.025333397 0.14269108 -0.346454 -1.4286395
0.09009142 -0.86346185 -0.3625626 -0.80663604 -0.95700824 0.32191834 -0.5523189 0.6066772
-0.5736835 -0.089316145 0.16522379 0.3364766 -0.25193435 0.19048868 0.24678667 0.09781412
-0.018481525 -0.0002355104 -0.2194767 -0.029485473 0.16360393 0.12043054 0.12263423 0.38749495
0.4166306 0.36365607 -0.21780892 -0.29600367 0.055032566 0.06083312 -0.18740177 0.02822865
0.17890485 -1.1311281 -0.6180414 0.42058083 0.08941836 0.12150402 0.025875464 0.34887037
0.120149076 0.6345464 0.36883906 0.03195858 -0.12672119 0.06216525 0.098649144 -0.15482986
-0.09958988 0.085727766 0.32177743 0.38223475 0.5724181 0.026159767 0.24875495 -0.53611904
0.60228217 -0.13307501 -0.53364605 -0.18315633 -1.4258295 -0.45636037 0.12457972 0.050337642
-0.061028987 -0.35788092 0.25232577 -0.032778863 -0.028823659 0.38679773 0.059293535 -0.06927994
0.1554993 -0.0009115137 0.12151462 -0.34035432 -0.13888304 -0.036373165 0.15026051 0.10383728
-0.25366792 -0.033204086 0.1868959 0.42800823 -0.1198382 -0.43498266 -0.42954352 -0.5566614
-0.5637657 -0.31047064 -0.45319304 -0.104056455 -0.15156125 0.04620528 0.20736171 -0.43698084
-0.13299951 0.008370912 -0.08598999 0.024818297 0.36649284 -0.094416484 0.13825712 0.1291298
0.092602275 0.23246945 0.06722366 -0.068652354 0.22043057 -0.07742448 0.50991815 0.6186505
0.19091895 -0.31926605 -0.4844071 -0.13409868 -0.06285249 -0.42737055 -0.13775301 -0.11205891
-0.004901932 0.3379133 0.20204887 -0.096965015 -0.12191815 -0.24891979 -0.09380225 -0.13890018
0.08959944 -0.1673419 -0.20322797 0.2417575 0.047557253 0.32870385 -0.116184354 -0.18883653
0.031032734 0.14379238 0.21221413 0.48787957 0.25993645 0.08201307 -0.5516441 0.556572
0.577102 -0.3424911 0.14347933 -0.23555493 -0.25070998 0.11657983 0.06064156 -0.13923374
-0.10421238 -0.047494683 -0.13425057 -0.3159405 -0.21557866 -0.083636254 -0.094604544 0.03146294
0.03690127 -0.0011834694 0.12827025 0.02479645 -0.14187534 0.17915627 0.17450322 0.41655615
0.15279867 0.28586027 -0.15830898 -0.8917106 0.48419717 0.30297098 0.3091384 -0.17939584
-0.3254521 0.115329094 0.10820306 0.045586415 0.15153459 0.049164638 -0.25329503 -0.32349008
0.13514613 0.091014825 -0.46454573 0.12904364 -0.019535257 0.032718353 -0.18536824 0.21418567
0.10298531 0.1865443 0.19360326 -0.07752449 0.21440761 0.35978788 -0.049689982 -1.169145
0.6930665 0.42690894 0.62927383 0.032208994 0.20882754 -0.020393673 0.038494833 -0.015521344
-0.17023061 -0.14610092 -0.39063033 -0.053022422 0.14783041 0.054143663 -0.23211536 0.10610366
-0.20894948 0.045189362 -0.14384499 -0.16659482 -0.2852034 -0.007877013 0.38897014 0.19280684
0.15370522 -0.027158564 0.5693364 -0.33878848 0.54666877 0.8992184 0.16359837 0.28066057

dense1.bias f4 [50]
00000000: 9526 e0be 887d 9dbe 7197 463d 9662 9fbb
00000010: b9f9 1d3f a98c 4d3f cbac 0c3f 0550 013f
00000020: f3d4 623e c485 923e 6cf8 443e 2412 323f
00000030: 632b a23e 9494 0fbf a0d9 403e 2cb7 2dbd
00000040: bd0a 773b 8810 b53e d59e fb3d 5797 0f3f
00000050: 3f63 813f 215c e93e c8a8 663b 80a7 4d3f
00000060: 0da8 aebe 3b07 01bf 250b dbbe 4033 da3d
00000070: 9fe7 d53e 6ae4 583d 102d 0e3f f743 083f
00000080: 7c54 eb3b 1004 d1bc 864d 273f ee50 6d3e
00000090: f2f3 de3d 939a 8abe 0eb9 863e e122 113f
000000a0: 268f c0bc cda6 923e 0eb5 c03e 03c0 52be
000000b0: b7cd 5a3e 8729 193c 8c90 613f 0294 c3be
000000c0: c939 233f 1ee3 e0be
-0.43779436 -0.30759835 0.04848427 -0.0048640473 0.6170917 0.80292755 0.5495116 0.50512725
0.22151546 0.2861768 0.1923539 0.6955893 0.31673726 -0.5608609 0.18833017 -0.042411014
0.003769561 0.35364175 0.12286154 0.560903 1.0108413 0.455781 0.0035195816 0.8033371
-0.34112588 -0.5040166 -0.4278194 0.106543064 0.41778275 0.052952208 0.5553751 0.53228706
0.007181702 -0.025514632 0.65352666 0.23175403 0.108863726 -0.27071056 0.2631306 0.56693846
-0.023505758 0.28642884 0.37638134 -0.20581059 0.21367536 0.00934828 0.88111186 -0.38198858
0.6376005 -0.43923277

dense2.weight f4 [40, 50]
00000000: 38bd 57be cdf4 a93d aa41 a1be 8424 a7bd
00000010: 858d 123f 35c8 abbe 6e18 ac3e e2d2 073f
00000020: 61fd cc3e d63c 69bf 42b5 493e aa8e d33e
00000030: 16da 883e e856 a83e 813b 44bc 3c85 073e
00000040: d509 37bd 49ff a03e f1a4 84be f580 393e
00000050: d886 87bd f2d3 8fbe 6993 77bc 6a81 833d
00000060: 9361 783e 94f6 4f3e fef2 a83e 9478 4fbe
00000070: 4151 7abc f2c6 1e3e bd7b 7dbf 88d4 59be
00000080: 595b 3b3d 7057 e9bd 6476 873e e937 73be
00000090: 43d1 aabb 9657 f73c 918d 11be cc41 04bf
000000a0: 689d 3c3d 025d ed3d ae34 dabc 0b23 96bd
000000b0: 0ee5 bb3c 7ef4 b73c 51e2 86bc 1303 abbe
000000c0: 1bfb 6f3e 9d3b 36be 5d55 023e c88f 90bd
000000d0: 7bc4 f5bd 9269 1fbf 43bf 5a3c 6332 493e
000000e0: 88e9 ba3e 1741 0c3d eb06 99be 11dd a0bf
000000f0: 28f9 6d3e b92f 9bbe 24f6 dbbe bb53 16bf
00000100: e10a 303d cf2b 793d 4347 24bf 7614 7fbf
00000110: ae3d e1be 6d45 123e c2c7 1a3f d730 fcbe
00000120: 01ea dfbc 1e41 ca3e cc3a 6bbe 2f24 dc3e
00000130: c5db 0ebf f268 34be 001e 17bd e347 4dbe
00000140: 2231 113e 591d 77bd 0524 63bd 9386 96bd
00000150: 459c eb3e 4647 243f 5203 fa3d 8502 b5bd
00000160: f4f1 133f 881f bc3d 3450 95bd b040 a33c
00000170: 2112 3dbe 04e3 493d c5f5 04be 84f1 1abe
00000180: d1b7 f2be e981 16be d384 8b3e 4305 ecbe
00000190: b742 edbd 0da3 bdbe 2194 1abe 456a 943c
000001a0: 4a41 ad3e 822e 9f3e 2a56 1bbe d021 1b3f
000001b0: 5410 a8bd c6ed 413f b775 77bd 87b9 883f
000001c0: 5231 013e 7d06 973e faba 173d add4 aebd
000001d0: 7387 d33d 8b12 323e 1ff1 efbc 6922 cc3d
000001e0: 2a62 b03e f254 e63d be87 91bd 3f61 e03c
000001f0: 412d 89be 8dc5 23bf 6b7c 9dbe 212a 04be
00000200: 6f3a e93e da2e f9bd d050 573e af39 413f
00000210: fad0 f23d c321 c0bd 5ace 383e 323d 983e
00000220: 6b01 b43d 2c37 d33d 8fc8 77bd 7143 eebe
00000230: 7241 803d 102e 31bc 30a9 ca3e 78bb 1bbf
00000240: f82b 303d 12ec de3d 4c2b fa3d 3ae7 11bf
00000250: 82d5 afbd cb14 8fbe 9057 34be 3815 2b3a
00000260: 1f79 dc3e d2d3 4a3e ff2c 6cbc f83f 51be
00000270: 6f6f de3e 7f9e b5be d7dd 973e 587d 0abf
00000280: 6be4 bcbd 9afc 4f3d 0a50 59be b994 f8bd
00000290: 3b4c 31bf 28f7 913d aada 9c3b 0329 c53d
000002a0: effa 913e 9b96 fb3d 826c b8be 5098 283e
000002b0: c032 39bd 5126 973e c616 b43d 17ad 44be
000002c0: f985 a93d 972a cd3e d16b 2b3e 7862 dfbd
000002d0: bc6f 3c3e 71d7 10be 3e05 d2bc 3567 eabd
000002e0: 30dd 4bbe 2659 963e ad57 483d d632 663e
000002f0: 2378 1ebe 0443 ae3e 6607 1b3d 7be5 e2be
00000300: e60e 78be 7547 0b3c ea6d 95be dfd3 cd3e
00000310: 350b 2d3e 180b e2bd 1c28 ab3b 7d0e 7f3e
00000320: 2bff 213e ef84 073e 6726 8d3e 4bc1 f23e
00000330: 7ac4 2f3d 0032 09bf a216 aabe 34c1 fabe
00000340: 7d78 2a3e c050 cabe cf83 46be 5be6 b93e
00000350: 349e 67bd dab0 113e bc70 143e 2b3e c4bd
00000360: 8a36 a33e 256b a03e 6bed 1f3e 64e2 d2bd
00000370: 44ca c3be b0b7 24be 38bd de3d 3023 e43e
00000380: dabf d3bd eec5 083e 8605 d0be 8ed8 88bc
00000390: c401 733e 469d 04bd 5a91 863e 5dcb adbe
000003a0: 291f 85bd eaa0 77bd a821 273d 8a20 643e
000003b0: d4fe 61be a8b0 9b3e e37a 3bbe f114 443e
000003c0: 6847 9a3d 3d47 d93e 083f 65bd f52c 39bf
000003d0: 71ce dbbd 05f8 2bbb 8872 ad3e 8be1 373d
000003e0: 0a55 923d abc4 d93d 0438 edbe 874c 053e
000003f0: a1b2 d33e 184b a1bf 624f fa3d 845d 5d3e
-0.21068275 0.08298645 -0.3149541 -0.08161262 0.5724719 -0.33551183 0.33612388 0.53056157
0.40037063 -0.91108453 0.1969805 0.41319782 0.26728886 0.32878804 -0.011977077 0.13234419
-0.04468711 0.31444767 -0.2590709 0.181156 -0.06617516 -0.2809139 -0.015110829 0.06421168
0.24255972 0.20308906 0.32997888 -0.2026084 -0.0152781615 0.15505579 -0.99016935 -0.2127248
0.045741413 -0.113936305 0.26457512 -0.23751797 -0.005212934 0.030193131 -0.1421416 -0.516629
0.04604855 0.115900055 -0.026636448 -0.07330903 0.02293637 0.02245545 -0.016465338 -0.33400783
0.23435633 -0.17796178 0.12727876 -0.07058674 -0.12000366 -0.6227046 0.013351264 0.19648127
0.36506295 0.034241762 -0.2988809 -1.2567464 0.23239577 -0.30309847 -0.42961228 -0.5872151
0.042979125 0.060832795 -0.64171237 -0.99640596 -0.4399237 0.14284296 0.60461056 -0.49256012
-0.027333261 0.39502805 -0.22971648 0.42996356 -0.5580409 -0.17618158 -0.036893845 -0.20046954
0.14178899 -0.060330722 -0.055454273 -0.07349887 0.46017662 0.64171255 0.122076645 -0.08838371
0.57791066 0.091857016 -0.07290688 0.019928306 -0.18463947 0.049288765 -0.12984379 -0.15131193
-0.47405866 -0.14697994 0.27249774 -0.46097764 -0.115849905 -0.3703846 -0.15095569 0.01811708
0.33838874 0.3109017 -0.15169588 0.6059847 -0.08206239 0.7575344 -0.060414996 1.0681618
0.1261647 0.29497138 0.03704355 -0.085366584 0.10328569 0.17389886 -0.02928978 0.09967501
0.34449893 0.11246671 -0.07105969 0.02739012 -0.26792338 -0.63973314 -0.30758986 -0.12906696
0.45552394 -0.12167139 0.21026921 0.75478643 0.11856265 -0.093814395 0.18047467 0.29734188
0.08789333 0.103132576 -0.060494002 -0.4653583 0.06262483 -0.010814205 0.39582205 -0.6083293
0.043010682 0.108848706 0.122152895 -0.5699345 -0.08585645 -0.2794555 -0.17611527 0.0006526294
0.43061158 0.19807366 -0.014415025 -0.20434558 0.43444392 -0.35472485 0.29661438 -0.5409751
-0.09223255 0.05077801 -0.21221939 -0.121377416 -0.69256943 0.071272194 0.004786809 0.09626963
0.2851176 0.12284585 -0.36020285 0.16464353 -0.045214415 0.2952142 0.08793406 -0.19206654
0.082775064 0.40071556 0.16740347 -0.10907453 0.18401998 -0.14144684 -0.025637265 -0.114454664
-0.19908595 0.2936489 0.04891174 0.2248033 -0.15475516 0.34035504 0.037848853 -0.44315705
-0.24224433 0.008500923 -0.2918542 0.40200707 0.16898806 -0.11037272 0.0052232873 0.2490787
0.15819995 0.13234304 0.2756836 0.47413096 0.042911984 -0.5359192 -0.33220392 -0.48975527
0.16647525 -0.39514732 -0.19386218 0.3630856 -0.05654736 0.1422762 0.1449613 -0.0958217
0.31877548 0.31331745 0.15617912 -0.10297087 -0.38240254 -0.16085696 0.10875934 0.44558096
-0.10339327 0.13356754 -0.40629214 -0.016704824 0.23731142 -0.03237655 0.2628277 -0.33944216
-0.06500084 -0.060456194 0.04080358 0.22278038 -0.22069865 0.30408216 -0.18308596 0.19148614
0.07533151 0.42437163 -0.055968314 -0.72334224 -0.10732735 -0.002624036 0.33876443 0.04489283
0.07145126 0.106332146 -0.463318 0.13017474 0.4134722 -1.2601042 0.12222172 0.21617705

dense2.bias f4 [40]
00000000: 9ebe a43e 8aac 333f e98c 563f ea2e 453e
00000010: edf8 693c 3f85 523d 327a 213f 40ca 99bd
00000020: c2b5 df3e bf87 5c3e 3368 333f 7106 e43e
00000030: 718a 50bd 0065 31bd 0ea8 d93e 2b30 ae3e
00000040: f35a 95bd 5f62 3e3e dadc ce3e 2067 45be
00000050: 9e5b 373f 1e4b 2c3f e0ce d6bd ae58 60be
00000060: 5c05 033f 8f6a 0d3f 98aa 1abe 63e7 adbe
00000070: 3b5a 10be 1936 d63e cf81 31bf 1706 1c3f
00000080: 7034 9bbc e70f 523e cb3a 223e 25e8 993d
00000090: f207 853f a118 9bbd 7496 123e fe5c 0f3f
0.3217668 0.7018515 0.8380876 0.19256178 0.01428054 0.051396605 0.6307708 -0.07509279
0.43693358 0.21536158 0.7008087 0.44536164 -0.050913278 -0.04330921 0.42511028 0.34021124
-0.07292738 0.18592213 0.4040287 -0.1927762 0.7162417 0.6730212 -0.10488677 -0.21908829
0.5118005 0.5524072 -0.15104139 -0.33965597 -0.1409692 0.41838148 -0.693387 0.6094679
-0.018945903 0.20513879 0.1584274 0.07514981 1.039305 -0.07573057 0.14315206 0.5600127

dense3.weight f4 [30, 40]
00000000: dbff a2ba 8a54 7cbf 743a 90be 61c8 01bf
00000010: b064 263e 73d2 5f3e bed1 233d 60c6 853d
00000020: 4dc3 b3be 7413 cabd 38c2 bbbf 9b65 9f3e
00000030: e7c3 db3e 5922 9cbe ad29 2cbe 1031 ecbe
00000040: b79b 8a3d 78bb 403d 8aee ec3d 8365 343f
00000050: b28d ac3e cbea 263d f59b 1e3e 1761 a73d
00000060: d8de 873e 80e5 56be f024 1fbe dbd0 b43d
00000070: a94a 33bd 65a9 383e 1036 2dbf 1df6 25bd
00000080: 91ad 423d 2b4e af3c 52cf 2f3f 698e 8c3e
00000090: 4934 223e 234f 15be 7a02 053f 9435 dabe
000000a0: b6aa 0d3e 0aa2 873e 42d7 1c3f 0ae6 03be
000000b0: 0577 3dbf c374 b93e a8b9 95be 98a4 94be
000000c0: 6c89 efbd 4eea 523e b00d 22be 40f4 b63e
000000d0: b6fa 5d3e 3b5d 64bf d25b f5be 028b 703e
000000e0: ab7c 03be ab51 cfbd f991 79bd 965b a53d
000000f0: d75c fb3e 5624 85bd 40a2 90bd 4477 8b3d
00000100: 4366 00bf 95d8 3a3e 4c65 06be 201c c7be
00000110: 0a1d c03d 3b09 32bd b90a b6be 199c f73e
00000120: 211a a93d 56fd fa3e c213 40bf e93d abbe
00000130: 1e8c eb3d 5554 ce3b 1d15 18be bc6f b53e
00000140: 5646 213b 7cb5 8cbe e2c6 953e e62f 0d3e
00000150: 30ae 093f 72e3 29bd 0189 85bd a45d 90bc
00000160: a929 183f 524f 1b3e 27d6 77bc 6ee8 10bf
00000170: 5310 9dbe 1674 143e b46a a0bd 3478 13be
00000180: b66e dabe 1df4 ae3e 73ba 69be d73a 76bf
00000190: 6eef 25bf 29f1 913e 47a3 833d 7161 de3b
000001a0: 3bfe d53e 0ef9 a73c bc67 09bd da87 f2be
000001b0: 067a 843d cc71 9f3e 6fd6 0a3d 04d3 253d
000001c0: 8b97 2cbe 0896 a9bd 2da9 df3e 238c 413d
000001d0: 5fb9 de3e 0482 b13d 6757 01bf 79ad dbbd
000001e0: 212d aebf 1193 cf3c e841 f73e 8339 933e
000001f0: 1e08 8cbc b0e8 f1be b9c3 dd3e 9354 acbe
00000200: 3d11 e73e 474f ddbc dada 863e 98a9 793e
00000210: e1be bc3e c382 32bd 032d 5bbc 5738 a43e
00000220: ff29 d33e 9e05 db3d d6b1 8ebf 4e24 93bd
00000230: 1e9a 81be b2fe 80be 9d35 01bf 5d17 103e
00000240: c6fe ed3d 112c a33e 5220 f4bd e4e1 9ebd
00000250: e8f0 cfbd 96a5 8dbd fa32 2cbe 84ca a7bf
00000260: 2b8c 18be a2b9 7dbf 7c94 6cbf b05c 0d3d
00000270: 03fd c73e 7c70 c73d 7180 383e 2046 013e
00000280: 6745 f23d c669 bd3e 67b5 a73e 0e62 0fbe
00000290: 7c08 33bd 7e99 053f cd08 92be 6a9e 5bbc
000002a0: 3802 b2be f956 223f bc2c a8be b5d3 2c3f
000002b0: 3b81 203f d465 6a3d a637 2bbe 69e3 1b3e
000002c0: d9e2 86bf 76a0 84bd a29c c73e 6063 bd3f
000002d0: cd1a a1be 439a 843e 8060 c53e e46e 923e
000002e0: 7496 0c3e bebd 16bd 9681 70bd 5064 433f
000002f0: 1e2a b5bd b8b8 323e 529a 843d b7ff b53c
00000300: e847 c13d e229 21be 9fa0 ab3e 9bfe dfbd
00000310: a5e7 8bbe 058a 143e c1b5 aabe 7c4c a53d
00000320: d38c 6fbd 398f 86be 1095 003f 1c52 33be
00000330: 87c9 3f3e 435b 283c 69c2 873e d37f ddbe
00000340: e84b 133e 72a5 2a3e 1855 9b3e 7beb 063f
00000350: 7eb3 1cbe 5864 adbe cb66 97be 2e72 8c3e
00000360: 2843 57bf 83df 8f3d c239 e5bc 7dbb 993f
00000370: 14b4 9a3e e5d9 5dbc eeed 1a3e 1e67 cd3d
00000380: 0eb9 f5be 3416 fb3d 4f3b 2abd c4c1 ad3e
00000390: 989b 8c3b 3c27 f83d c099 213e c8cb 6cbe
000003a0: e71b c43d 4fc1 25be 4109 14bd c8f6 47be
000003b0: 8fd1 95bd 9e22 d4bd 149b 41bf fc58 ed3e
000003c0: 4a44 d33d 94bb f83e 84ba fdbe eda4 98be
000003d0: dd78 cc3d 582e ca3e e887 aabe 61d2 563e
000003e0: 9570 45be cd67 d93e f1f3 6c3e 617a d13e
000003f0: c060 ec3d 225d 58be bce4 053e ead3 1f3f
-0.001243587 -0.98566496 -0.28169596 -0.5069638 0.16249347 0.21857624 0.039994948 0.06531978
-0.3510994 -0.09866992 -1.4668646 0.31132206 0.429229 -0.30494955 -0.16812773 -0.46131182
0.067679815 0.047053784 0.11568935 0.70467395 0.33701855 0.04075126 0.1548918 0.08172815
0.26537204 -0.20985985 -0.15541434 0.088288985 -0.043772373 0.18033369 -0.6766062 -0.040517915
0.047528807 0.021399578 0.6867572 0.274524 0.15840258 -0.1458097 0.51956904 -0.42619002
0.13834652 0.26490813 0.6126596 -0.12880722 -0.74009734 0.36221895 -0.29243207 -0.29031825
-0.11696133 0.20597193 -0.15825534 0.35733223 0.2167767 -0.8920476 -0.47921616 0.23490527
-0.12840526 -0.10122999 -0.060930226 0.08074109 0.4909427 -0.06501071 -0.07062197 0.068098575
-0.5015604 0.18246682 -0.13124579 -0.38888645 0.09380539 -0.043465834 -0.35555056 0.4836128
0.08256937 0.49021405 -0.7503015 -0.3344567 0.115013346 0.0062966743 -0.14851804 0.3543681
0.0024608574 -0.27482212 0.29253298 0.13787803 0.53781414 -0.041476674 -0.06520272 -0.017622776
0.5943857 0.15166977 -0.0151267415 -0.5660466 -0.30676517 0.14497408 -0.07832852 -0.14401323
-0.4266259 0.3417062 -0.22825031 -0.9618353 -0.64818466 0.28504303 0.06427627 0.0067865183
0.41795525 0.0205045 -0.033546194 -0.47369272 0.064685866 0.31141508 0.033895906 0.040484443
-0.16854684 -0.08280569 0.43683758 0.047252785 0.43500802 0.08667377 -0.5052399 -0.10726447
-1.3607522 0.025338681 0.4829247 0.28754815 -0.017093714 -0.4724784 0.43313387 -0.33658275
0.4513034 -0.027015341 0.26338845 0.24381101 0.3686438 -0.043581735 -0.013377431 0.32074234
0.41242978 0.10694431 -1.1148021 -0.07184659 -0.25312895 -0.25194317 -0.5047243 0.14071412
0.1162086 0.31869557 -0.11920227 -0.07757929 -0.10153371 -0.06916349 -0.16816321 -1.3108678
-0.1489722 -0.9911138 -0.9241407 0.03451222 0.3906022 0.097382516 0.18017747 0.12624407
0.11829644 0.3699476 0.32755587 -0.14002249 -0.043709263 0.52187335 -0.2852234 -0.013404468
-0.34767318 0.6341396 -0.3284663 0.6751054 0.6269719 0.057226017 -0.16720447 0.15223469
-1.0537978 -0.06475918 0.3898669 1.4795952 -0.3146576 0.25898942 0.38550186 0.28600228
0.13729268 -0.036802046 -0.058717333 0.7632494 -0.08845924 0.17453277 0.06474747 0.02221666
0.09437543 -0.15738633 0.33520982 -0.10937234 -0.27325168 0.14505775 -0.33341792 0.08071229
-0.05848391 -0.26281145 0.5022745 -0.17511791 0.1872922 0.010275665 0.2651551 -0.43261585
0.14384425 0.16664675 0.3033836 0.52703065 -0.15302846 -0.3386562 -0.29570612 0.27430862
-0.8408685 0.07025053 -0.027981643 1.2010342 0.30215514 -0.01354072 0.15129825 0.10029434
-0.47992748 0.12260094 -0.041560467 0.33936894 0.004291009 0.12116858 0.15781307 -0.23124611
0.095756344 -0.16187023 -0.036141638 -0.19527733 -0.07315361 -0.10358165 -0.75627255 0.46356952
0.103157595 0.4858061 -0.49556363 -0.29813328 0.0998399 0.39488482 -0.33306813 0.2097869
-0.19281228 0.42462006 0.23139931 0.4091368 0.11541891 -0.21129277 0.13075536 0.6243273

dense3.bias f4 [30]
00000000: cccf 18be b180 233f b4ad ac3e afd0 2c3f
00000010: e89c 353e e9a9 8f3e 0883 b33d 0144 853e
00000020: 135e 4ebd 0c94 06bd 61f2 433f 09c2 aa3e
00000030: 997d 3f3f 4293 933e 26e1 fd3e 2851 733e
00000040: 094d 7bbd 9154 703e a40f 0b3f 0d16 3e3f
00000050: 0888 393f 6f5f 153e b339 a3bc 633e 0f3f
00000060: 9089 503e 28ae 953e 495b 393e 08f1 0a3f
00000070: 32e9 c33e 9cd4 4bbe
-0.14923018 0.6386824 0.33726275 0.67505926 0.17735636 0.2805932 0.087652266 0.26028445
-0.050382685 -0.032856032 0.76541716 0.33351162 0.7480102 0.28823286 0.49585837 0.23761427
-0.061352763 0.2346976 0.5432074 0.74252397 0.7247319 0.14587186 -0.019924974 0.5595457
0.20364976 0.29234433 0.18101229 0.54274035 0.3826385 -0.19905323

dense4.weight f4 [10, 30]
00000000: 2e27 4f3f ca98 12bf 284b 993e 34bd 903e
00000010: ba06 9dbe 1272 9dbc eb9f c33d de53 21bd
00000020: 8347 853e 7d39 97be 79e5 53be 46d2 2abc
00000030: 99bb 2a3f 3fd9 eebe 4f8e 33bf f34c f4be
00000040: 8319 d93d ec7c a53b f7d4 3ebd b255 153e
00000050: 3a23 413e e5b1 46be 69d7 b6be 821c fabe
00000060: 0424 a63d 4099 533e b59c a33e 7f31 b53d
00000070: dcc2 1abf 9728 633e add1 d0bc 9258 e6bd
00000080: 455a 82bf 2f8f a8be 8c6e fb3e eb38 343f
00000090: 6d00 013f 3388 203e ae79 9dbd 6c65 8cbc
000000a0: d824 64be f8d2 9d3e 6431 dabf 0446 e6be
000000b0: 6a0e 62bf bcc4 bc3e 9f9a 833e 7609 78be
000000c0: 3d60 0f3f 0bfb 95be f381 8fbf 7b1e 343f
000000d0: 2fb0 1e3f 8a77 aabf a1a0 abbe bce4 49be
000000e0: 6852 51be 6af0 08bf d2ff 66bf d060 8abe
000000f0: 427d a9bd 3601 babf 9e5d 923d a102 0ebf
00000100: 6178 14bf b32d 23bf 5946 b0be 1b84 2d3e
00000110: e69e aabc 45c8 2dbe 9a46 0bbe 8c7e a7bf
00000120: fa13 16bf b4b4 16be 7957 a5be 6cce 113e
00000130: 7eeb 64be 3960 19be bdf4 a33e 6ce9 343c
00000140: 7230 c4be 995b 5d3d 6461 873e f8bd 953e
00000150: 3914 bd3e 26cc 103e 448d 893e ff24 483e
00000160: 8d6f 323e d73e 2abf 9d11 d2bf c4da d2bf
00000170: 8f97 0fbe 8898 2abf 78cb d8be 82a7 a33e
00000180: a132 e93d 72f9 ba3e 526f 1c3e 86bd debd
00000190: b83d 63bf f43f d63d 7031 5a3e 65b5 b03d
000001a0: 0dc8 163f 5b00 0b3e dece 03bd d770 50bd
000001b0: 80b0 523e 13a2 afbf 0d5e 5dbf f2c3 c0bd
000001c0: e344 e2be 1e63 d2be 91b5 37bc 7cff 913e
000001d0: 2b95 32bf 5779 6a3e 3b20 a53e b828 d7be
000001e0: 1f45 c63e 7d3f 943e 643c e13d 4c80 52bf
000001f0: abfb 26be 0175 18bf 3295 953e fd63 f6bd
00000200: 1c9b eebd fc60 543d fca0 37bd 896a 373d
00000210: 6df9 8f3e 5a91 023e 0340 88be 2e1c 0a3c
00000220: c0a0 4c3e b102 31bf 5672 2dbf 683a 8dbe
00000230: 902f 993e 6a84 96be 2d2f 0f3e 2468 2e3e
00000240: 2455 a53c 99bf 53be b2eb 2a3e 4f45 713e
00000250: 3752 4f3e c3c8 8f3d ca7d bdbd 270e 523e
00000260: f5f9 2bbf b32b a7bf bee2 043e 9ae1 e73e
00000270: 47a1 8bbe 5e5b 0bbf 47b8 23be b9d5 c7be
00000280: 148c 4d3e 1244 a93e 370a 76bf 3dd6 013d
00000290: d94a 1e3e d63d e4be b7c8 3bbf f93a cf3d
000002a0: 55fc 2a3e cc85 4abd 9659 cf3e ac09 513e
000002b0: 8dbf 163c e033 e2bb 2566 0b3f e9da dc3e
000002c0: 6073 49bf 1c2a 0dc0 31dd 96be 594f 023e
000002d0: 9737 61bf 4ee1 7abf 49d2 193e 93da 1d3f
000002e0: 8402 06be 793b 433e 46a9 1fbe 1b30 963d
000002f0: f9de 17be 0d68 43be 0765 90bf 7068 cbbd
00000300: c8a2 03bf 9334 0a3f 789c 323d 4325 8f3d
00000310: 3142 523e b1f6 e43d 2ddb 823b 385c a93e
00000320: 7909 e9bd fc58 90bf fa11 5c3d 9441 693d
00000330: 54d0 3fbf 1f9f 1cbe db35 4c3d 609d a33d
00000340: bf34 393e b505 a6bf c682 a1bd 3420 bd3e
00000350: ff61 8dbf bcef fcbf 3cd1 d93d 2f50 80bf
00000360: 6f38 aa3d 1cc8 563e b865 18bf acdf 4e3e
00000370: fbdb 183e a355 b93e 8bdd 1dc0 16c0 88bf
00000380: f0ff 843e 5c40 673d 0a89 a83e 6415 5cbe
00000390: d96b 9dbf 1222 d13e 8606 843e 7960 6a3e
000003a0: 95dc e1be b899 223e c3af ccbd 79c8 75bf
000003b0: 056a e1bf d5ae 96bf ebb2 923d 0999 99ba
000003c0: b793 9dbf ca25 08bf a30a a7be 6b37 6ebf
000003d0: e2f1 0f3f e267 963c b355 3ebf 80a1 ddbe
000003e0: 8034 213f 70cd 4b3f 5130 d4bf 3e4e 01bf
000003f0: 52b8 82bf 9fb1 a7bf f613 033f 7df4 b3be
0.8091916 -0.5726439 0.29940152 0.2826935 -0.30669194 -0.019219432 0.09551986 -0.039386623
0.26031122 -0.29536048 -0.20693006 -0.01042611 0.666925 -0.4665012 -0.7013902 -0.47714958
0.10600569 0.0050502922 -0.046589818 0.14583471 0.18861094 -0.19403799 -0.3571122 -0.48849875
0.08112338 0.20663929 0.31955495 0.08847331 -0.6045358 0.22183453 -0.025490606 -0.11247362
-1.0183798 -0.3292174 0.49107778 0.7039935 0.50391275 0.15676956 -0.07689224 -0.017138205
-0.2227968 0.3082502 -1.7046323 -0.44975293 -0.88303244 0.36868846 0.25703904 -0.24222359
0.5600622 -0.29293093 -1.1211532 0.7035901 0.61987585 -1.331773 -0.33520988 -0.19716161
-0.20441592 -0.5349184 -0.902341 -0.27026987 -0.08275844 -1.453162 0.07146762 -0.5547276
-0.57996184 -0.63741606 -0.3442867 0.16944925 -0.020827722 -0.16970928 -0.13601151 -1.3085494
-0.5862423 -0.1471737 -0.322933 0.142389 -0.22355458 -0.14978112 0.32022658 0.01104198
-0.3831821 0.054042432 0.2644149 0.29246497 0.3692949 0.14140376 0.2686559 0.19545363
0.17425366 -0.66502136 -1.6411625 -1.6473012 -0.14022659 -0.66638994 -0.42342734 0.31963736
0.1138661 0.36518437 0.1527684 -0.108759925 -0.8876605 0.10461417 0.21307921 0.08628348
0.58899003 0.13574354 -0.032179706 -0.050888862 0.20575142 -1.3721336 -0.86471635 -0.094123736
-0.4419318 -0.41091245 -0.011212722 0.28515232 -0.6975886 0.2289785 0.32251152 -0.42023253
0.3872461 0.28954688 0.10997847 -0.82227015 -0.16306941 -0.59553534 0.2921539 -0.1203079
-0.116506785 0.051850304 -0.04483126 0.044779334 0.28119984 0.1275076 -0.26611337 0.00842957
0.19983196 -0.6914473 -0.6775259 -0.27583623 0.299191 -0.293979 0.1398284 0.17031914
0.0201822 -0.20678557 0.16691473 0.23561595 0.20246206 0.07020714 -0.09252508 0.20513211
-0.6717828 -1.3060211 0.1297712 0.45289308 -0.27271482 -0.5443629 -0.15988265 -0.39030245
0.20072967 0.33059746 -0.96109337 0.031698454 0.1545824 -0.44578427 -0.7335314 0.1011867
0.1669782 -0.049444005 0.40498036 0.20413846 0.009200943 -0.0069031566 0.54452735 0.43135765
-0.78691673 -2.2056952 -0.2946563 0.12725581 -0.8797545 -0.9800004 0.15021624 0.6166164
-0.13086897 0.19065656 -0.15591916 0.07333394 -0.14831151 -0.19082661 -1.1280831 -0.09932029
-0.5142026 0.5398647 0.04360625 0.06989529 0.20533063 0.11179865 0.003993413 0.3307817
-0.1137876 -1.1277156 0.05372808 0.056947306 -0.7492726 -0.15295075 0.049856048 0.07989001
0.18086527 -1.2970492 -0.07886271 0.36938632 -1.1045531 -1.9760661 0.106356114 -1.002447
0.08311545 0.20974773 -0.5953021 0.20202512 0.14927666 0.36198148 -2.466647 -1.068362
0.25976515 0.056457862 0.32917053 -0.21492535 -1.2298537 0.40846306 0.25786227 0.22888364
-0.44113603 0.15878952 -0.099944614 -0.9600902 -1.761048 -1.1772105 0.07163032 -0.0011718582
-1.2310704 -0.5318266 -0.32625303 -0.9305331 0.5622846 0.018360082 -0.74349517 -0.43287277
0.62970734 0.7961035 -1.6577245 -0.50510013 -1.02125 -1.3101081 0.5120233 -0.35147467

dense4.bias f4 [10]
00000000: 738f 863d b948 eebe 02c8 123e 2a73 b73e
00000010: 0886 27be e154 69be d882 5b3e ac21 eabd
00000020: a1e1 c6be dd2a 84be
0.065703295 -0.46539858 0.1433411 0.3583005 -0.16359723 -0.22786285 0.21436632 -0.11432204
-0.38844016 -0.25813952
