models_weight/SNet/SNet_model_B_fashion_Adam.pt (torch, 174329 bytes, 8 tensors)

dense1.weight f4 [50, 784]
000000 4f be 57 3f a1 49 0a 3f 2e 6a 80 3f 8d b1 53 bf
       0.8427476 0.540186 1.0032403 -0.82692796
000010 28 c2 c2 3d 5d fc 07 3f d5 31 b3 be 8d aa e4 3e
       0.095096886 0.5311945 -0.34998956 0.4466137
000020 ab 62 2b 3f 5c bd 94 be 08 c2 91 3f 4b 51 43 3f
       0.6694743 -0.2905072 1.1387339 0.7629592
000030 32 dd 57 be 78 af 53 3d 52 dd 0b bd a8 a0 7b 3d
       -0.21080473 0.051681012 -0.034146614 0.06143251
000040 21 ba ed 3d b7 a1 4b 3e 9d 9a b4 be 5b 7f 6c bd
       0.11607767 0.19885908 -0.3527421 -0.057738643
000050 75 af 0a 3f f2 f7 78 3e ac fd 5c 3f 3a f7 94 3e
       0.54173976 0.24313334 0.8632457 0.2909487
000060 99 1c ba 3d fd 41 35 be 04 7a 28 3f db 60 f5 3e
       0.09087486 -0.17700954 0.6581118 0.47925457
000070 a3 fa c7 3f 77 4e 94 3f 05 6b 89 3f 1f f2 25 3d
       1.5623363 1.1586446 1.0735785 0.040514108
000080 08 57 f9 3d c8 15 f3 bd 09 da e6 3c dd cf 7f bd
       0.12174803 -0.11869389 0.02818014 -0.062454093
000090 67 27 50 3e ec 65 19 3d 81 5e a1 3e 1e fe c6 3e
       0.20327531 0.037450716 0.31517413 0.3886575
0000a0 83 83 a6 3e 3a 56 c8 bd f9 41 c4 bd f6 ef 24 3e
       0.3252221 -0.097820714 -0.09582896 0.16107163
0000b0 59 70 3b bd c4 44 dd bc 0c 42 81 3d 09 f6 91 3d
       -0.04576144 -0.027010329 0.063114256 0.071270056
0000c0 35 c6 1e be e6 24 a4 be 54 9c 9f be a8 1f 87 be
       -0.15505297 -0.320594 -0.31173956 -0.2639134
0000d0 27 67 a8 3e d1 e7 1b be a6 80 17 3e 40 3b 73 3f
       0.328912 -0.1522515 0.14795169 0.95012283
0000e0 3e 9c b0 bc 23 31 8f 3e 7e 2a 8f 3e b2 89 d5 3e
       -0.021558877 0.27967176 0.27962106 0.41706616
0000f0 3b 52 49 be 58 29 83 3b 3f c6 86 3e 0a 93 23 3e
       -0.19660275 0.0040027313 0.26323125 0.1597406
000100 67 f3 6f be da 01 8e be 54 e8 49 be 64 7f ab 3d
       -0.23432694 -0.27735788 -0.19717532 0.08373907
000110 17 28 94 3e 08 7f 12 3e ea b8 8b 3d bb b1 d3 bd
       0.28936836 0.14306271 0.06822379 -0.10336634
000120 9e 81 ab be 89 70 34 bd 45 7c bc be 5f f0 84 bd
       -0.33497328 -0.044052634 -0.3681356 -0.0649116
000130 9a 63 18 3c 29 b8 d0 3a 87 d6 61 be db d0 af be
       0.009301091 0.0015924025 -0.22054492 -0.34339032
000140 4c 5b 94 3e 74 a7 28 3c 21 df c2 be 36 c2 16 3f
       0.28975904 0.01029383 -0.3806086 0.5889009
000150 cf a0 d5 be ab 86 f9 be d7 de 9e 3c 7a 5c 41 3f
       -0.4172425 -0.48735556 0.019393368 0.75531733
000160 9b 31 4d be 99 6c fb 3e 59 2b 79 3e 8a 1f 2f bd
       -0.20038454 0.4910629 0.24332942 -0.042754687
000170 62 37 dc be 2e fc 19 bf b3 e9 f6 ba 76 2f 16 3e
       -0.43011004 -0.6015042 -0.0018837958 0.14666542
000180 14 5e 37 3d 4a 4a 7e 3e 31 49 a2 3e 96 05 3a be
       0.044767454 0.24833027 0.31696466 -0.18166193
000190 d7 80 01 be f8 42 d1 3d d2 ca 80 be 49 fb 8a be
       -0.12646805 0.102178514 -0.2515474 -0.2714484
0001a0 b9 4c 38 be 50 22 05 3d 62 b5 02 bf 62 a2 81 be
       -0.17998017 0.032503426 -0.5105802 -0.253192
0001b0 dc 5e c5 be 85 98 a3 be 90 3a 90 be f9 f2 08 bf
       -0.38548934 -0.319523 -0.2816968 -0.53495747
0001c0 d7 d2 d7 be 94 72 17 be 08 d3 62 bc 06 fe 37 3f
       -0.42153046 -0.14789802 -0.013844259 0.71871984
0001d0 fb c4 36 3d 70 be ff 3d 92 bb 48 3e e5 f6 33 3e
       0.04462145 0.12487495 0.19602802 0.17574652
0001e0 a2 d0 10 be 57 15 80 be 3e aa 32 3e 36 e3 de 3e
       -0.14142087 -0.2501628 0.17447755 0.43532723
0001f0 e4 b6 bb 3d 8e 94 47 3e ee 27 36 3e f5 59 df 3d
       0.09165743 0.19490263 0.1778867 0.1090583
000200 a7 ba a1 3e 78 69 0c 3d 1c 61 ad be ad de 1f bc
       0.31587717 0.03428027 -0.3386315 -0.00975768
000210 eb eb ba 3d cb 73 66 be fb a4 03 3e e0 52 bc be
       0.09127029 -0.22505109 0.12855904 -0.3678198
000220 24 61 d8 3e 20 ed 5b 3e 10 03 b7 3e be cf a3 3e
       0.42261612 0.21477175 0.35744524 0.31994432
000230 fa 2f 21 bf 16 7f 3a 3e 15 06 6c bd 16 f4 ce be
       -0.6296383 0.18212542 -0.057622988 -0.40420598
000240 d8 6e 0d 3f a0 52 68 3e 11 9d ea 3e 8f 06 e2 3e
       0.5524726 0.22687769 0.45822957 0.4414563
000250 63 58 1c bc 30 32 3f 3e 81 18 28 3d c0 71 b6 3e
       -0.009542557 0.18671489 0.041038994 0.3563366
000260 42 ab a3 3d 0a f1 ab 3d d0 6d c3 3e a6 c8 c2 be
       0.07991649 0.08395584 0.38169718 -0.38043708
000270 a4 5d be 3e 3d c4 fa bd 9a 53 96 bd 2a 8e 08 be
       0.37180817 -0.12244461 -0.073401645 -0.13335481
000280 0f 96 56 3e 19 d0 29 be 8f 8a 10 3e dc d6 0e bf
       0.2095568 -0.16583289 0.14115356 -0.557966
000290 58 99 04 3f 9e 09 d3 be 0a 9c db 3e 1c 7a 0c bf
       0.51796484 -0.41218275 0.42892486 -0.54873824
0002a0 1e 29 4a bf e1 1a 38 bf 48 5c de be ad 23 0d bf
       -0.7896899 -0.71916014 -0.4342978 -0.5513256
0002b0 d5 6a 92 be 85 8a e3 bd d6 0a 65 3e 35 f3 9e 3d
       -0.2859713 -0.11110405 0.22367415 0.07761232
0002c0 eb b5 9d bd ad ce 97 3e ef 6a 16 3e 25 a7 7d 3d
       -0.07700714 0.2964987 0.1468923 0.06192698
0002d0 5a d4 ea bd ef fe 31 3d 4b d4 36 be a1 81 84 be
       -0.11466284 0.043456014 -0.17854421 -0.2588015
0002e0 a7 af eb 3c b4 c0 90 bd 37 2c de 3d 6b d9 61 3e
       0.028770281 -0.07068005 0.10848277 0.22055595
0002f0 f7 81 4b 3e 14 00 3b be dc eb 1f 3e 43 fc ab be
       0.19873796 -0.18261749 0.15617317 -0.33590898
000300 07 8e b1 be cb ee 30 bf 08 e2 a7 bd 73 fd 58 3e
       -0.3467867 -0.6911437 -0.08197409 0.21190433
000310 04 61 60 bf b9 d6 87 bf a4 d9 50 bf ac 5e c3 be
       -0.87648034 -1.0612403 -0.81582093 -0.38158166
000320 01 d5 7a bd ff c7 1b be 31 18 84 3e 6c 04 b7 bd
       -0.061238293 -0.15213011 0.25799707 -0.0893639
000330 29 3a 00 3e ad 3b 05 be 3b ef 98 be 61 9c 8b be
       0.12522186 -0.13011046 -0.29870018 -0.27267745
000340 cd 90 20 be 00 dd c5 3d 06 ba 4a 3d 45 57 36 bc
       -0.15680237 0.09661293 0.049493812 -0.011129205
000350 4d 91 aa 3c 07 05 02 3e dc fe 8d 3e f7 da 8a 3e
       0.020821238 0.1269723 0.27733505 0.27120182
000360 84 b2 d1 3e d0 98 b7 3d 52 ce 2c be 33 79 eb bd
       0.4095651 0.089646935 -0.1687558 -0.11497726
000370 65 f2 66 be 79 aa 25 be a2 d8 2d 3e 34 3a e7 3e
       -0.22553404 -0.16178311 0.1697717 0.45161593
000380 91 d4 03 c0 51 ab 5a bf 19 c7 83 be b3 94 01 bf
       -2.059849 -0.8541766 -0.25737837 -0.5061752
000390 0e b6 0c be 1e 62 37 be 7d f5 d4 3e 75 b7 eb 3c
       -0.13741323 -0.17908522 0.41593543 0.028774003
0003a0 58 1b ee bd cb 4a c7 be c5 c6 56 be ec 04 cf 3d
       -0.11626309 -0.3892425 -0.20974262 0.10108361
0003b0 ac 2a 97 be ab a8 cf 3d f4 3c 37 be cd b1 83 be
       -0.29524744 0.10139593 -0.17894346 -0.2572159
0003c0 49 91 93 bd 7a 7b 9e bc 67 37 f3 bd bf 7e e1 3d
       -0.07205445 -0.019345988 -0.118758015 0.11010503
0003d0 56 73 84 3d 8f b2 00 be 7c 50 bc bc f7 94 85 3c
       0.06467311 -0.12568115 -0.022987597 0.016306384
0003e0 7a f9 67 3d b9 80 ac bc 6e 1e da be f8 ba b7 be
       0.056634404 -0.021057473 -0.4260134 -0.35884833
0003f0 21 16 17 c0 17 ea ee be f2 12 e8 be fe 56 0c bf
       -2.3607256 -0.4666297 -0.45326954 -0.5482024

dense1.bias f4 [50]
000000 af b5 c2 3e 39 ba 85 bd 1e f6 1d 3f 35 5a 87 3f
       0.3802924 -0.0652966 0.6170367 1.0574404
000010 71 7a 1d bf cd 22 1a 3f d3 23 21 bd 25 6a 19 3e
       -0.61514956 0.6020935 -0.039340805 0.14981897
000020 dd b3 2a bb 09 fc 63 bc bc 76 ae bb 34 1b d8 bd
       -0.0026047148 -0.01391507 -0.005324213 -0.105520636
000030 d3 bd f3 be 9d 6e ee 3e 62 d8 39 3e 44 cf 96 3e
       -0.47605762 0.46568766 0.1814895 0.29455006
000040 18 a6 9c 3e 93 a0 15 bf 0b 32 ef 3e 68 d0 42 3f
       0.3059547 -0.5844814 0.46717867 0.7609925
000050 ba 58 08 bf 25 9f 54 bf 46 a1 88 3c b9 6e bf 3e
       -0.53260386 -0.83055335 0.016678464 0.37389162
000060 e9 ed 33 be 4e 60 89 3e 1d 5d 6f bc 62 91 94 3d
       -0.17571224 0.26831287 -0.014609602 0.07254292
000070 73 2b 84 3c f4 35 e0 3d 6d 40 31 3f e7 e6 a0 3e
       0.016134 0.10947791 0.6923893 0.31426165
000080 fd f9 f7 bc 1d 7b 4f 3f 5a 20 b6 be b5 3a 8c 3e
       -0.03027057 0.8104723 -0.35571557 0.2738854
000090 33 66 be 3e 7d bc 8f 3e bf 74 b2 be 89 d5 e0 3c
       0.37187347 0.28073493 -0.34854695 0.027445571
0000a0 4c 48 b5 3c c8 42 18 bf 33 a8 35 3f 47 90 59 3b
       0.0221292 -0.594769 0.70959777 0.0033197568
0000b0 ea f3 fc bd 71 9b 47 bd 2c 7e 9c 3e 0b 68 3d 3e
       -0.123512104 -0.048732225 0.30565012 0.1849672
0000c0 bf f6 b3 bd 67 5f cb 3e
       -0.087872975 0.39721224

dense2.weight f4 [40, 50]
000000 65 1a 86 3e 37 13 e4 3d 3e e7 4c bd fa 35 d9 3d
       0.26192012 0.111364774 -0.050025217 0.10605998
000010 6e f6 53 bd f9 6f 36 3d 53 4d cb b9 d1 2d bc bd
       -0.051748686 0.04454038 -0.00038776788 -0.09188426
000020 82 11 73 be 30 6f 93 be a3 00 d7 3c 17 fb 9d 3d
       -0.23737147 -0.28795767 0.02624542 0.07713907
000030 7b 0d 5e 3e 64 62 d1 bd d5 a3 61 3f 69 d0 4c bf
       0.2168483 -0.10223845 0.8814061 -0.8000551
000040 e0 f2 79 bf 6f 19 dd be 7f 5c 10 3e 8d 88 8a 3e
       -0.9763622 -0.43183467 0.14097784 0.27057305
000050 bf df ae bb 06 33 0b be 45 f5 fd bd 16 bc 5f be
       -0.005336731 -0.13593683 -0.12400297 -0.21849093
000060 2e 0e 7a 3e 7c fb 4b 3e dd f9 0d 3e ac ba 5d 3e
       0.24419472 0.19920152 0.13864847 0.21653241
000070 2b ed f3 bc 39 1d 4b bd 30 ee f1 3c c6 9e bc 3e
       -0.029776176 -0.049588416 0.029532522 0.36839885
000080 43 e1 f4 ba 3a fa 7f 3d 5c 52 cc 3c 84 08 ee bb
       -0.0018682856 0.062494494 0.024941616 -0.0072641987
000090 ae 47 35 bf 62 15 ff bd 5d 23 ad be 5b e7 a2 3c
       -0.708125 -0.1245525 -0.33816043 0.01988571
0000a0 30 1d 21 bc 5b d5 dc be 9a 45 9d 3e 59 cb 0f 3e
       -0.009833619 -0.43131527 0.30717164 0.14042415
0000b0 73 bd 8e 3d 74 47 26 be 27 14 b7 3e b3 55 06 3d
       0.06969728 -0.16238195 0.35757563 0.032796573
0000c0 ff f7 cf 3e be 91 d9 3d 20 38 73 3e 58 9c 53 be
       0.40618894 0.10623501 0.23751879 -0.20665109
0000d0 2b 42 ca 3d 78 ef 05 bf 99 a5 3b 3c 5b ef 00 3f
       0.09875902 -0.52318525 0.011453056 0.5036523
0000e0 6a 42 09 be 21 34 97 be a4 08 09 bf ba 6c 3f be
       -0.13404241 -0.2953196 -0.5352881 -0.1869382
0000f0 ce 86 af bd d2 b6 a9 3e 31 d8 1b be 75 8b b3 3e
       -0.08570634 0.33147293 -0.15219189 0.35067335
000100 00 fc 08 bf 1c 8f 8a 3e d5 e5 2f be 47 47 58 3d
       -0.5350952 0.2706231 -0.17177518 0.05280235
000110 bd fe f9 be 80 cb f1 3e e3 12 09 bd 9e 56 f6 3d
       -0.48827162 0.4722557 -0.033465277 0.1202824
000120 fb 76 19 3d 28 e1 0a be 47 cb 07 be 8f 49 1a 3e
       0.037466984 -0.13562453 -0.13261138 0.15067123
000130 7c e9 b4 bd f0 88 c9 3d 40 bb eb bd 9a 20 c6 bd
       -0.08833596 0.09840572 -0.115103245 -0.09674187
000140 aa db 2c bd 89 6b 02 3f cc ae 0e 3e 1c 64 86 3e
       -0.042201675 0.50945336 0.13933867 0.26248252
000150 68 2f 15 3e b3 59 a8 3d 5b 44 13 3d 3f 65 af ba
       0.14568865 0.08220234 0.03595386 -0.0013381614
000160 2b 15 10 be 00 66 59 bd 61 c2 67 bd 0d 12 19 be
       -0.14070575 -0.05307579 -0.05658186 -0.14948292
000170 ca eb 8e 3e eb c1 db 3d c6 65 d7 3d 18 dd 79 3c
       0.27914268 0.10730346 0.105174586 0.015250467
000180 c1 5a 80 3d 3a c2 4d 3e a2 54 f7 bc 51 94 b9 3e
       0.0626731 0.20093623 -0.030191723 0.3624597
000190 49 1e b4 be b5 84 af 3e ab 08 e0 3d 20 c8 5d 3e
       -0.35179356 0.34280935 0.10939153 0.21658373
0001a0 37 71 9e be b5 5c 45 3d 73 84 5c 3c 66 26 35 3e
       -0.3094575 0.048184115 0.013459313 0.17690429
0001b0 66 47 37 3e f6 f6 91 be d7 3c 5b bd 1a 00 b2 be
       0.1789833 -0.2850873 -0.05352482 -0.34765702
0001c0 9c 10 b8 bd 23 64 ae 3e f0 1d 6d 3b c7 b6 0a bf
       -0.08987543 0.34060773 0.0036181174 -0.54185146
0001d0 d5 31 a2 bd 19 9b 0e be 8d 63 98 3e 58 60 8e 3e
       -0.07919661 -0.13926353 0.2976345 0.2780788
0001e0 4a 1c f6 3b 62 4b 0b be 60 5f 9a bd 62 d9 92 3e
       0.0075106965 -0.13602975 -0.075377226 0.28681475
0001f0 46 94 77 be 50 92 73 3e d7 3c 02 bd b4 ad a7 3e
       -0.24177656 0.23786283 -0.031796303 0.32749712
000200 fb a1 f6 3d 55 35 8e 3e 12 1a fb 3e 6d e2 51 3e
       0.12042614 0.27775064 0.49043328 0.20496531
000210 8d 35 13 bc 32 5c a0 bb 5a 10 b2 be 14 a6 90 3e
       -0.0089849355 -0.004893803 -0.347781 0.28251708
000220 1f 81 04 be 64 4f ae bd 14 bc 47 be 31 8a a6 bd
       -0.12939881 -0.08511236 -0.1950534 -0.08131827
000230 62 fd 53 3d 1e f0 4b 3d ae 3d 53 3e e6 87 86 bd
       0.051755317 0.04978954 0.20628998 -0.06568889
000240 0a 20 82 3e e6 61 0f bd f6 b5 88 3d 7e aa d0 3e
       0.2541507 -0.035005473 0.06675331 0.40755075
000250 02 2b ec 3e b2 ac c6 3d 8b 46 dd be 40 8c dc bd
       0.46126562 0.09700908 -0.43217883 -0.10768938
000260 18 56 40 3e c9 26 81 bf 27 86 8a 3e f1 a4 f7 3e
       0.18782842 -1.0089961 0.27055475 0.48368028
000270 69 58 ea bc bb 4d e3 bd 14 21 0c be 63 c3 9f be
       -0.02860661 -0.1109881 -0.13684493 -0.31203756
000280 a7 30 40 bd 42 70 03 bd d9 f7 a2 bc 82 90 6e 3e
       -0.0469214 -0.03208948 -0.019893574 0.23297313
000290 dd da 8a be e6 69 aa be da 51 25 ba ab 88 80 be
       -0.27120104 -0.3328392 -0.00063064473 -0.2510427
0002a0 1a 1e 0c be e6 e4 47 bd b6 b3 e0 bd 2c 6a cb 3e
       -0.13683358 -0.04880228 -0.10971777 0.3972944
0002b0 c7 3d bb 3d 1b 8b 2f be d7 06 0f 3e 19 55 96 3e
       0.091426425 -0.17142908 0.13967453 0.293618
0002c0 1b b9 37 bd ba 67 89 bd 23 90 5b bd f4 b6 ce bd
       -0.044854265 -0.067092374 -0.053604256 -0.10093489
0002d0 5c 08 e6 3e 56 63 ff 3d a9 06 b7 3b 60 07 de bd
       0.44928253 0.12470119 0.0055855107 -0.108412504
0002e0 e7 1d 4c 3d bc 36 80 3e b8 49 fb be 3d d2 56 3e
       0.049833205 0.2504176 -0.4907968 0.20978637
0002f0 99 41 94 be 96 0c bc bd 0b 41 c5 ba 09 76 b8 3c
       -0.28956297 -0.09182088 -0.0015049292 0.022517221
000300 63 cf 4e be 99 ac 96 bd 31 63 6d 3f 19 fc 0c 3e
       -0.20196299 -0.07357139 0.9272948 0.13768043
000310 40 ac 13 be b9 1e f8 3d 50 f7 96 3e 08 c1 1b be
       -0.14421177 0.12115235 0.2948556 -0.15210354
000320 0c 07 20 bd a9 c1 49 3d 56 1b a5 3e a0 a4 25 3e
       -0.03906922 0.049256954 0.32247418 0.1617608
000330 e3 5a 2f 3e 58 d0 15 be d9 74 da bd 19 6e f7 3d
       0.17124514 -0.14630258 -0.10666818 0.12081546
000340 19 9e ad 3e 8c b6 fa 3c 7a c4 e5 3d c8 f3 82 3d
       0.3390968 0.030604623 0.112191156 0.06394154
000350 f4 8b 81 be a5 1a de 3e c7 b0 75 bf 85 65 c6 bd
       -0.25302088 0.43379703 -0.95972866 -0.09687332
000360 aa 01 75 3e 76 03 0e 3e 73 8a 12 bf eb aa 8b 3d
       0.23926416 0.13868508 -0.57242507 0.068197094
000370 75 8c 1f bf a6 ae f1 be 9c c8 56 bd 20 64 1c 3e
       -0.62323695 -0.4720356 -0.05243741 0.1527257
000380 02 2b 8c 3e 4f 65 e8 3e 70 d7 ad bd 5f 8d 7b 3e
       0.27376562 0.45389792 -0.08488357 0.24565648
000390 9d ca 74 bd 7a af ad 3e 79 6f 73 be ae e3 29 bf
       -0.05976354 0.3392294 -0.23772992 -0.66363037
0003a0 43 a7 60 3c 8e 4a 8f be aa a0 60 3e 75 80 0a 3f
       0.013711753 -0.27986568 0.21936288 0.5410226
0003b0 ec f2 c7 3d a8 96 d2 bd 0b dd 90 be 5f 95 d5 bd
       0.097631305 -0.10282642 -0.28293642 -0.10428881
0003c0 0a 0e 4b bc 94 1a 3e 3d 1c de 34 3d 89 14 a1 bd
       -0.012393484 0.046412066 0.044157133 -0.07865245
0003d0 71 2c f2 bd 59 11 0e bd d8 40 b0 be 15 08 a1 3e
       -0.11824883 -0.034684513 -0.34424472 0.3145148
0003e0 73 c5 4c bd ea 58 8d bd 13 c9 67 bd a6 91 e9 bd
       -0.04999299 -0.06901725 -0.056588244 -0.11404733
0003f0 12 e8 3d bf bd 95 2c bd 43 f9 8e be f7 51 ef be
       -0.74182236 -0.04213499 -0.27924547 -0.46742222

dense2.bias f4 [40]
000000 ba 9a 26 3f c7 e9 2e 3e ba c3 10 3f b3 2a 97 3e
       0.65079844 0.17081366 0.56548655 0.29524764
000010 f3 12 9f bd 40 7a 00 3f cd 33 31 3f 34 dc 1a 3f
       -0.07767286 0.5018654 0.69219667 0.60492253
000020 4c 18 bd 3e 6a 7a 32 3e d4 4a b7 be 4e 38 6f 3e
       0.369326 0.1742951 -0.35799277 0.23361322
000030 73 c6 a9 3d da 97 0f 3f 8d 31 06 bf 5b ea 19 3e
       0.08289804 0.5609108 -0.5241936 0.15030806
000040 cc 7a 9f be dc 5b f2 be 94 b6 38 3f f2 40 33 be
       -0.31148374 -0.47335708 0.7215359 -0.17505243
000050 80 de 5c 3e 3a 6a 35 3e 98 70 3f 3f 9c 54 41 3f
       0.21569252 0.17716303 0.7478118 0.7551973
000060 39 5d 80 be 44 ca 75 be cb f6 08 3f ce 9a 57 3f
       -0.25071123 -0.2400294 0.53501576 0.8422059
000070 d4 96 33 bd 78 96 31 3f f0 08 1c 3f be 33 01 3f
       -0.043845013 0.6937022 0.6095114 0.5046958
000080 1c 26 21 be ae 26 8a be 83 fa 66 3f 22 b8 5e 3e
       -0.15737194 -0.26982635 0.90226 0.21749929
000090 d1 49 96 3d 35 40 23 3e 30 47 81 3d b2 d8 7e 3f
       0.07338298 0.15942462 0.06312406 0.995494

dense3.weight f4 [30, 40]
000000 01 cf 48 3f 90 12 9b bd fe c8 89 3e e1 f5 bf bd
       0.7844086 -0.075719 0.26911157 -0.093730696
000010 04 6d 43 bf 8e 14 f5 3e 07 ec 2a 3f 98 3e 54 3e
       -0.7633822 0.47867244 0.667664 0.20727003
000020 30 72 73 be ca 0b 0b be 47 1e e7 be 6e 80 ab be
       -0.23774028 -0.13578716 -0.45140287 -0.33496422
000030 47 cf 69 bd 47 cf c8 3e 3d a5 ef be 2b 78 21 3e
       -0.05708244 0.3922064 -0.46805754 0.15768497
000040 87 85 35 be d3 aa c7 be fd 76 66 3f 10 3c 97 3d
       -0.17726718 -0.38997516 0.9002531 0.07384503
000050 40 b6 eb be 94 58 6d 3e d2 13 be 3e 83 24 9d bf
       -0.46037483 0.23178321 0.37124497 -1.2276767
000060 67 d7 84 bd 9a ee 07 bf 05 2f 99 3e d3 33 c8 3d
       -0.06486397 -0.5309845 0.29918686 0.0977551
000070 a1 58 95 3e 75 09 1c bd 8e b2 fb 3d c2 17 95 3d
       0.2916918 -0.038094956 0.12289916 0.07279922
000080 03 4e 95 bd b4 69 b5 3e f3 74 5f bc d9 2d a4 3e
       -0.0729027 0.35432208 -0.013638723 0.3206623
000090 23 17 0a be da 84 a8 3d 9a 35 51 bd 05 b3 cb bc
       -0.13485388 0.082284644 -0.05107651 -0.024865637
0000a0 28 ac 13 3e 63 42 a8 be b7 2a e1 3d 1f 55 75 3e
       0.14421141 -0.3286315 0.10994475 0.23958252
0000b0 33 af 20 bf ac ea d7 3e 3b 26 4f 3e b0 34 ad 3d
       -0.6276733 0.42171228 0.20229428 0.08457315
0000c0 81 f5 c8 3e dc c5 03 bf 9c f8 fc 3d 63 c6 2a bd
       0.39249805 -0.51473784 0.12352106 -0.041693103
0000d0 c0 d2 81 3e df bd 0f bf a5 c9 a4 be 07 a6 cc be
       0.25356102 -0.56149095 -0.32185093 -0.3997042
0000e0 5f 6f 30 bc bd 64 07 3e 71 14 18 bf 28 d1 96 bd
       -0.01076874 0.13222022 -0.5940619 -0.07364112
0000f0 4b 95 2f 3f 75 c2 01 3e fc b0 63 bd cc fe d8 be
       0.6858718 0.12671836 -0.055588707 -0.42381895
000100 77 db 55 3e 53 93 d0 3d 26 8b 25 bd 06 79 06 3f
       0.208845 0.1018435 -0.040415905 0.5252842
000110 8e 7d a0 3e 95 6c 0c bf e6 c4 cb 3e e5 2d 97 be
       0.3134579 -0.54853183 0.3979866 -0.29527202
000120 18 5e c2 bd 26 2e be be 62 42 80 be d0 b0 b9 3e
       -0.09490603 -0.37144583 -0.25050646 0.3626771
000130 70 01 5a bd f9 1b 42 3c 9f a8 01 be 3f 3b d5 be
       -0.053224027 0.0118474895 -0.1266198 -0.41646764
000140 76 b9 d5 bd 2a 5a cb bd d8 32 39 be 4a c0 06 be
       -0.104357645 -0.09929307 -0.18085802 -0.1315929
000150 1c b2 a3 bc 45 28 13 be 5b 91 8f 3d 9b 4c af 3d
       -0.01998239 -0.1437083 0.07010146 0.08559533
000160 97 3a 2d be b3 51 cf bd f8 1a c9 bd f5 c4 79 bd
       -0.16916882 -0.10123005 -0.09819597 -0.06097885
000170 af 50 98 bd ba 8e 18 be 4f 4e 95 bd 61 6d 15 be
       -0.07437264 -0.14898196 -0.07290327 -0.14592506
000180 3e b6 c6 3c 5b a9 15 3d 5c 5f 61 bd bf 5d a5 3d
       0.024256822 0.036538463 -0.055022582 0.08074521
000190 48 53 a9 bd a4 40 dd bc 61 cb e3 bd 05 9e 41 bd
       -0.08267838 -0.027008362 -0.11122776 -0.04726984
0001a0 ef 8a a6 bb f0 1e 88 bd 6e 95 94 bd 52 5e 3c be
       -0.00508248 -0.06646526 -0.07255064 -0.18395355
0001b0 6a 89 2e be ee 54 b5 bd c2 a2 be 3d dd ac 52 bd
       -0.17044607 -0.0885409 0.09308387 -0.051434387
0001c0 4a 87 f8 bc f5 c2 c4 bd f5 d4 df bd 7f 2e f9 bd
       -0.030337948 -0.096074976 -0.1092929 -0.121670716
0001d0 56 ee 3d bd cf ec 27 bd 92 2f f1 bd a6 4c df 3d
       -0.046369873 -0.040997323 -0.117766514 0.109032914
0001e0 04 92 93 be c6 d0 04 be 24 d3 76 bc 12 8b 88 be
       -0.2882234 -0.12970266 -0.015064988 -0.26668602
0001f0 69 02 37 3e 56 ac c6 3f 99 a0 b1 bd 7e f4 7f bb
       0.17872013 1.5521343 -0.0867321 -0.003905564
000200 4f f2 81 be f1 02 6b be 56 78 f7 bd 05 d8 d3 bd
       -0.2538018 -0.22950341 -0.12083499 -0.10343937
000210 20 a6 f7 bc 4b cb 41 3d 48 b3 49 bb e9 17 32 3e
       -0.030230582 0.047313016 -0.0030777026 0.17391934
000220 b1 be 15 bd 24 02 a7 3d 77 0b 4a 3e 26 d7 92 3d
       -0.03655881 0.08154705 0.19730936 0.071699426
000230 15 65 c0 3d 86 9e b9 3d 48 e3 4f 3f 96 0d a2 3e
       0.0939428 0.09063439 0.8120618 0.3165099
000240 4e 3f 2d 3e 2a bf be 3e 8c 91 a3 3e af 99 8b 3d
       0.1691868 0.37255222 0.3194698 0.06816422
000250 db c6 02 3e 8b 2d 5d 3d 84 79 c3 bd aa 93 3b bf
       0.1277117 0.05399851 -0.09544662 -0.7327219
000260 b5 f6 ba bd 1b f2 c7 3e 31 7b 9c 3d ff 3d 80 3d
       -0.09129087 0.390519 0.076406844 0.06261825
000270 40 0b 00 3e f9 e6 32 bc 4b fd 40 bf 3b dd 66 bd
       0.12504292 -0.010919326 -0.75386494 -0.056363326
000280 4a e1 71 3f ea fc 8f bd 9e 04 0e be 7b 6b c3 be
       0.9448439 -0.070306614 -0.13868949 -0.3816794
000290 d1 60 08 be 9a 10 41 3d b7 3b ec bc fe 73 d4 3e
       -0.13318183 0.047134973 -0.028837068 0.41494745
0002a0 c3 90 0c be 24 28 86 3d f2 a9 52 3e cc 5e b6 be
       -0.13727097 0.06550625 0.20572641 -0.356192
0002b0 b2 be 88 be 31 08 ba 3e ad a0 02 3e 3b ed 10 bf
       -0.2670799 0.36334375 0.12756605 -0.56611985
0002c0 1a 11 3b be 3d 98 13 be 95 38 58 3f c4 b8 e6 bd
       -0.18268242 -0.14413543 0.8446134 -0.1126571
0002d0 f5 dd 8d be 1c 72 31 be 6f e3 95 be df b8 36 bf
       -0.27708402 -0.17328686 -0.2927508 -0.7137584
0002e0 26 af 53 3e 7c 71 36 3e 37 42 ed 3e 01 6a 7e 3e
       0.20672283 0.17816728 0.4633958 0.24845125
0002f0 6b ed 6f 3e 8a 09 a7 3e a3 a1 e6 3d d8 14 76 3e
       0.23430412 0.32624465 0.112612985 0.24031389
000300 de ba c3 3e 02 30 f7 3d f8 e0 f6 3d 14 a1 90 3c
       0.38228506 0.12069704 0.12054628 0.017654933
000310 74 6b a9 bd e7 c3 19 3e ea d5 18 3e 43 5b 24 3d
       -0.08272448 0.15016137 0.14925352 0.040126096
000320 c7 3e 8b be 30 54 57 3d a7 55 1f 3e 95 8f 28 3d
       -0.27196333 0.05257052 0.15560018 0.041152555
000330 29 9c 59 be 13 44 94 be eb 63 87 3c 8a 42 53 bb
       -0.21250977 -0.28958187 0.016527137 -0.0032235705
000340 24 1c c7 3e 78 69 00 bf 39 4f 09 bf dd 38 cd bd
       0.38888657 -0.5016093 -0.5363651 -0.100206114
000350 64 98 8e 3e ab 10 f5 3e 4c f4 9b be a9 27 49 3e
       0.2785064 0.4786428 -0.3045982 0.19644035
000360 90 11 40 be c6 5b 86 3d fa f7 01 bf 39 f3 05 3e
       -0.187567 0.06560473 -0.5076901 0.13081063
000370 9e e8 59 3e 0f e3 60 bd aa 1c 5e 3f 84 38 4d 3e
       0.21280143 -0.05490404 0.8676249 0.2004109
000380 8d de f9 bd a1 84 2e bf 1e da c2 3e d1 e1 4f bb
       -0.12200651 -0.68171126 0.38057035 -0.003172029
000390 91 0c bf 3d 4c 89 70 be ce b2 c7 3e a0 0f 22 be
       0.09328569 -0.23489875 0.39003605 -0.15826273
0003a0 23 e1 0b be 02 55 07 3f aa af 24 3e b5 c8 e8 bd
       -0.13660102 0.52864087 0.16082636 -0.11366407
0003b0 19 df 8d 3e 53 0c 47 be fd a2 fd 3d 20 a6 28 be
       0.27709273 -0.19438295 0.12384603 -0.16469622
0003c0 ea 02 18 bf c4 5b 59 3d 73 7f b3 3d 1d c8 d9 bd
       -0.59379447 0.05306603 0.087645434 -0.10633872
0003d0 88 6f 03 3f d6 af b0 3e 00 a4 ac 3d 64 a0 a8 be
       0.5134206 0.34509152 0.08429718 -0.32934868
0003e0 79 1e 2e 3e 32 a5 0f be e1 91 52 bd 46 de d0 3e
       0.17003812 -0.14027861 -0.051408652 0.4079458
0003f0 55 69 e2 bd 86 f6 2d be 8a 5a 50 bd 9b 66 39 3d
       -0.11055247 -0.16988572 -0.050867595 0.045263868

dense3.bias f4 [30]
000000 29 c5 f3 3e 66 a5 6a bd 19 97 b1 bd 6f 44 7b 3e
       0.4761136 -0.057286642 -0.08671398 0.24537824
000010 5e a8 f3 3d 66 dc b6 3e 21 83 00 3e f1 85 e0 3e
       0.11897348 0.35715026 0.12550022 0.4385219
000020 52 77 e1 3d 38 88 02 3f d5 69 31 bd ba 87 46 3e
       0.11009087 0.50989103 -0.04331382 0.19387713
000030 6b c9 f5 3e 2b 50 20 3d 85 ff 1a 3f 64 c5 2d 3f
       0.48005232 0.039138954 0.6054614 0.6787932
000040 41 34 79 3d ff 13 c4 bc 58 65 94 be ea d0 ea 3e
       0.06084085 -0.023935316 -0.2898357 0.45862514
000050 f4 6d c0 bd cc a7 9e bd ba 48 3a be 52 55 f9 3e
       -0.09395972 -0.077468485 -0.18191805 0.48697907
000060 fe ad 11 3f 29 f1 8c 3e b1 e7 87 3e aa c0 5e 3e
       0.56906116 0.2752774 0.26543954 0.21753183
000070 43 91 23 3f bc 9d 5f bd
       0.63893527 -0.054593787

dense4.weight f4 [10, 30]
000000 42 11 ce 3e 89 66 8c bf 79 0c 6f bd 32 f2 a5 bd
       0.40247542 -1.0968791 -0.058361504 -0.08102836
000010 97 b2 aa 3e bd eb 40 bf 88 76 3f bf 46 36 c6 3d
       0.33339378 -0.7535971 -0.7479024 0.096783206
000020 f4 a3 43 3e c5 81 e5 3d 0f 74 f6 be 76 a5 97 be
       0.19105512 0.11206392 -0.4813542 -0.29618424
000030 b8 ad 18 3e af b8 10 bf 01 1e 22 be 35 4d d3 be
       0.14910018 -0.56531805 -0.15831758 -0.41269842
000040 d3 6e 9b be 71 be 1f be 9c d9 b0 3d ee 50 b0 3e
       -0.3035799 -0.15599991 0.08635256 0.34436744
000050 fb ab 34 be a2 28 49 3e 41 08 94 bd 42 18 2e c0
       -0.1764373 0.19644406 -0.07228137 -2.7202306
000060 4c bb 24 bf 21 a0 45 be 4f ef ae 3e 86 1f 71 bf
       -0.6434829 -0.19299366 0.34166953 -0.94188726
000070 6d 2f d2 be df b4 26 be 3d fd 70 bf d1 ba 76 bf
       -0.41051808 -0.16279934 -0.9413641 -0.9637881
000080 a9 d6 be 3c f6 1b 48 bf 62 12 ae 3e fa 48 5a 3f
       0.023295717 -0.78167665 0.339984 0.85267603
000090 1c bf 7e 3e f0 ae df be 8b 3f 19 bf ae be 86 bf
       0.2487759 -0.43688154 -0.59862584 -1.0526941
0000a0 07 a6 dd 3d 04 de 4a 3e 5f ed 17 bf ca ee 83 3f
       0.10822683 0.19811255 -0.59346575 1.0307248
0000b0 23 79 ab 3e 95 e8 31 be a1 bb 13 bf 3c 95 45 3e
       0.33490857 -0.17373879 -0.57708174 0.1929521
0000c0 74 a8 2f bd 0c 9a 92 bf 9b ce 63 bd 21 67 76 3e
       -0.04288526 -1.1453261 -0.055616956 0.24062778
0000d0 ed 53 ac bd e9 5a f7 bf fa d6 53 3f 20 36 b5 bc
       -0.08414445 -1.9324619 0.82749903 -0.022120535
0000e0 ab 8c 5d be c6 86 57 be a6 56 04 c0 eb c0 4c be
       -0.21635692 -0.21047506 -2.0677886 -0.19995467
0000f0 4b 22 12 be c1 35 ac bd 5f 61 0f 3e ce 9f 0e be
       -0.14270894 -0.0840869 0.14001988 -0.13928148
000100 c4 8f 21 be ae c4 ee 3d ac a8 8b 3d cd fe 92 bd
       -0.15777498 0.116586074 0.06819281 -0.07177506
000110 85 5d 32 be 53 31 5a 3e e0 32 54 be 99 6f de bd
       -0.17418487 0.21307878 -0.20722532 -0.10861129
000120 3a bd 92 3e aa db 8f bf 87 e1 e7 3d 8a 31 ff bd
       0.28659993 -1.1238911 0.11322313 -0.12460621
000130 a5 a7 79 bf c5 ff a4 be 1b dd dd 3d bd 90 86 bf
       -0.9752143 -0.32226387 0.10833188 -1.0512921
000140 62 ce 0e 3b a7 b2 8a bd 1c dc 17 be d0 c1 9b 3d
       0.0021790494 -0.067723565 -0.14830059 0.07605326
000150 3f d1 00 3f a3 5f ab 3e 95 72 21 bf c9 93 e4 be
       0.50319284 0.33471403 -0.63065463 -0.44644
000160 1d 1c b5 3e dc 7c 3e bd 53 c4 09 c0 ab f1 71 be
       0.3537301 -0.046505794 -2.1526077 -0.23627345
000170 5c e6 15 3e 95 31 68 bf bf f9 bc bd bc aa 40 bf
       0.14638656 -0.90700656 -0.09227323 -0.7526052
000180 d7 fc 20 3d 0c ae d9 3d df 5f 07 3d 48 df 2d 3d
       0.039303627 0.106289 0.033050414 0.042449266
000190 9b 87 21 bf 50 94 df 3e aa 20 58 3d a2 9c 78 be
       -0.6309754 0.4366784 0.052765526 -0.242785
0001a0 ab 30 87 3e 8e b7 2f be f1 59 85 bf 33 e1 d0 be
       0.26404318 -0.17159864 -1.0418073 -0.40796813
0001b0 ee 74 1c bf 6a c0 ec bf f9 44 13 be 70 01 4b be
       -0.6111592 -1.849622 -0.1438178 -0.19824767
0001c0 d2 59 3d be f5 a3 29 c0 f9 ed 0d 3f 60 1b 85 3d
       -0.18491295 -2.6506321 0.5544124 0.06499362
0001d0 1d ad ce 3e 04 e0 16 3e db 77 6a bf 40 77 47 be
       0.4036645 0.14733893 -0.91589135 -0.19479084
0001e0 c2 1f 30 bf 52 90 94 bf 52 99 56 bd 4e 16 39 3e
       -0.6879846 -1.1606543 -0.05239231 0.18074915
0001f0 a5 ae 57 bf c7 a8 a9 bd f1 e2 f4 3d a8 14 b3 3d
       -0.8425086 -0.08284145 0.11957348 0.08744174
000200 38 80 06 bf ad 00 94 3d 7e 89 16 bf 46 b9 12 3e
       -0.52539396 0.072266914 -0.58803546 0.14328489
000210 bd f7 32 3e 42 c3 6b bf d7 95 35 be a8 cb 6c 3d
       0.17477317 -0.92094815 -0.1773294 0.05781141
000220 43 9d 4f be 17 18 10 3e 35 92 72 3e 42 8f c2 be
       -0.20274834 0.1407169 0.23688586 -0.37999922
000230 ec 54 65 3c a9 3b 35 3e 81 1e b2 be b0 69 96 3e
       0.013997298 0.1769854 -0.34788898 0.29377508
000240 8f 4f 21 bf 4e 55 a3 3b 38 88 0f be cc 47 26 3e
       -0.6301202 0.0049845343 -0.14016807 0.16238326
000250 44 b8 9b be 0f 4d ad 3d 16 80 4b 3f a2 49 c0 bd
       -0.3041402 0.084619634 0.7949232 -0.09389044
000260 ed 36 66 3c 4b 53 98 3d 78 42 1b 3e 31 7c e7 3d
       0.014051181 0.07437762 0.15162075 0.113029845
000270 05 2c 13 bf fb f2 99 3d b6 c9 42 3c b9 08 ca bf
       -0.57489043 0.07517048 0.011888912 -1.5783912
000280 6b 16 08 bf 18 2a 9a 3e 34 dc 11 c0 73 a8 ca 3e
       -0.5315921 0.3011024 -2.2790651 0.39581642
000290 db b9 8a bf c2 ae e5 bd 36 e3 a4 3f af ff e0 be
       -1.0837969 -0.11214973 1.2881839 -0.4394507
0002a0 67 c8 4b 3b d1 d3 b8 3c 3e a9 1d 3e cc 22 a7 bf
       0.003109479 0.02256194 0.15396592 -1.3057494
0002b0 48 bf 18 bc 4d 28 7b 3f fa 7f e9 3e f4 6b 7a 3d
       -0.009322949 0.9810837 0.4560545 0.06113811
0002c0 7d 0d bf 3e aa cb c4 3c 30 7e 0d 3f 4b 44 73 3c
       0.37314978 0.024022896 0.5527067 0.014847825
0002d0 ac ae 5a be a2 70 10 3f fd 94 89 bd fe 16 42 bf
       -0.21355695 0.56421864 -0.067178704 -0.75816333
0002e0 4f 96 8d 3d b6 8d 26 bf 39 3b ba bd 9f 36 91 3e
       0.06913435 -0.65059984 -0.09093327 0.28361985
0002f0 57 ea 5d bf 57 ea 4d 3e 73 9c 7e 3e 05 4f e5 be
       -0.866857 0.20108925 0.24864368 -0.4478685
000300 ff 94 23 3e e2 9b 86 3e 5b f0 ec 3d 32 e0 db 3e
       0.15974806 0.26290804 0.11569282 0.42944485
000310 77 20 87 bd d2 23 a6 be b3 53 d7 bd 9e 72 00 be
       -0.06597989 -0.32449204 -0.10514011 -0.12543723
000320 d9 ba dc bd 17 e7 58 bd 1e 76 e6 bd 64 81 9b bf
       -0.10777826 -0.05295476 -0.11252998 -1.2148862
000330 38 fd a0 be 43 74 86 bd 09 61 c1 bd 29 ed 8f 3e
       -0.3144319 -0.06565144 -0.09442336 0.28110626
000340 16 a2 a7 bc b0 ee 33 3e 27 35 40 be cb 46 2b 3e
       -0.02046303 0.17571521 -0.18770276 0.16726224
000350 f1 0a 55 3d e5 f0 a3 3e a1 eb 0d bf d0 a0 8b 3e
       0.052012388 0.32019725 -0.55437666 0.27271128
000360 7a e6 3f 3e 91 3f a0 bf 58 c5 93 3e f9 2e b1 bf
       0.18740264 -1.2519399 0.288615 -1.384246
000370 29 11 0e be 90 27 77 3e 56 70 9f bf f2 b6 24 bf
       -0.13873734 0.24136186 -1.2456157 -0.6434165
000380 dc 03 72 bf 2a 87 1a 3f e2 c0 45 bf 25 dc 90 3e
       -0.9453714 0.60362494 -0.7724744 0.28292957
000390 55 45 c7 be 0c c2 93 3e 22 8e 21 be fe 9e 21 be
       -0.38920084 0.28858984 -0.15776876 -0.15783307
0003a0 c2 9d 5b bc 63 6d 35 bf 96 95 09 c0 41 76 6d be
       -0.013404312 -0.70870036 -2.149755 -0.23189642
0003b0 da c2 02 bf c5 db f2 be 20 01 30 be d0 6e 18 3c
       -0.5107857 -0.47433296 -0.17187929 0.0093037635
0003c0 21 22 8a bf ec 04 36 bd dc 81 4e bc b1 19 14 3f
       -1.0791665 -0.044438288 -0.012604203 0.578517
0003d0 05 12 2f be 61 03 32 bf 12 5e c3 bd 9d 21 40 3e
       -0.17096718 -0.69536406 -0.09539427 0.18762822
0003e0 30 e5 80 3f df be e4 3d 7e e0 d5 3e 4a f2 0c 3e
       1.0069942 0.11169218 0.41772836 0.13764301
0003f0 12 09 71 bf 3e 3e 23 3f 00 b5 d7 be f1 5b 95 be
       -0.94154465 0.6376685 -0.4213028 -0.29171708

dense4.bias f4 [10]
000000 94 c7 9d be 5b 6b 32 bf c3 ca c1 3d f6 50 01 3f
       -0.3081633 -0.6969506 0.09462502 0.5051416
000010 5a f3 28 be d3 f7 bf be e2 cc c8 3e 21 bb 28 3e
       -0.16499081 -0.37493762 0.39218813 0.16477634
000020 90 9f 2d be 3c b5 78 3d
       -0.169554 0.060719714
