models_weight/SNet/SNet_model_B_cifar_Adam.pt (torch, 631845 bytes, 8 tensors)

dense1.weight f4 [50, 3072]
0.21026978 0.3485299 0.24514486 0.32814214 0.22569741 0.115019284 0.38718134 0.21916929
-0.013682895 0.30139762 0.39552978 0.29855895 0.3455758 -0.01926049 0.16815647 0.08110052
0.12411454 0.6540966 0.28345448 0.039983436 0.37242827 0.7352451 0.14080806 0.22374085
0.3042316 0.30031097 0.2562977 0.22239658 0.30700696 0.052927595 -0.09930049 -0.011664398
0.2585905 0.31156772 0.25080255 -0.08927547 0.07126953 -0.104631566 0.07461578 -0.010257305
-0.16917728 0.19727053 0.2244145 0.20521821 0.41806027 0.19763868 0.3151844 0.13565555
0.14783147 0.2282362 -0.28524914 -0.29586676 -0.2412938 0.18976937 -0.16234295 0.095757246
0.4532684 -0.095775954 -0.2785572 0.033916935 0.09689533 -0.22467807 -0.15813816 -0.013830418
-0.07133421 0.22590396 0.21082377 -0.015750233 0.2860634 0.25603643 0.050582636 -0.15610225
-0.21876062 -0.09448999 -0.18038164 -0.30984244 -0.2646358 -0.057713214 0.32518372 0.009721833
0.24557017 -0.06756588 -0.2645097 -0.10338021 -0.35477775 -0.13276203 0.03339227 0.046783675
0.11631025 -0.019947646 -0.00047227863 0.08556889 0.12378416 -0.18633494 0.050134692 0.22930582
-0.33676112 0.07891696 0.02199069 0.17873019 0.12862778 0.06732446 0.10729453 -0.031624377
-0.011489802 -0.09396073 0.040762074 -0.23344158 -0.044618078 -0.17257428 -0.033875264 0.098618
0.32861546 0.2611005 0.13625406 0.1106996 -0.21090963 -0.09637094 -0.19348787 -0.3391745
-0.17858462 -0.2700984 -0.13924302 -0.017573383 -0.04808808 -0.12168557 0.056235228 0.09882033
-0.37042254 -0.027315447 0.07487392 -0.15926483 -0.28349325 -0.20298041 -0.11782987 -0.3114702
-0.32750276 -0.14471224 0.062772356 -0.124384694 0.21660978 0.1664755 -0.03696434 -0.11796918
-0.017094484 0.37965155 0.083907254 0.03381872 0.047302682 0.012484105 -0.011098345 0.051153764
0.26632398 -0.07859174 -0.3768064 -0.1474112 -0.14675225 -0.17932664 -0.19951268 -0.15332882
-0.12070496 0.12725604 0.15421763 -0.20252848 -0.22777148 0.054063126 0.04738762 -0.1829721
0.16678748 0.100891836 -0.1596388 -0.31002665 -0.13269281 0.017798875 0.32911912 0.04918461
-0.16206004 -0.040153313 0.05162518 -0.04891578 0.08152156 -0.1324761 -0.37558556 -0.08175749
-0.24298522 -0.19920567 -0.2307675 -0.3995979 -0.24957709 -0.062956624 -0.11245272 -0.19445017
-0.093038574 0.026799677 -0.046727616 -0.21973035 -0.3503109 -0.035342503 -0.10784546 -0.32503608
-0.023180882 0.028511884 -0.120846614 -0.23155785 -0.061039243 -0.3226562 -0.13204402 -0.06605234
-0.09754135 -0.025063824 -0.11800463 -0.14058448 -0.24065149 -0.2757234 -0.2482945 0.19274041
-0.18510437 -0.21882991 0.09809698 0.0074287564 -0.06720252 -0.12057191 -0.12627806 -0.2908525
-0.38637894 -0.18598665 -0.07334417 -0.05370904 -0.26648194 -0.22633374 -0.21101958 -0.2605929
-0.37244648 0.04534745 0.18131314 0.15155345 0.16214304 -0.080301024 0.012808768 0.21690801
0.11212072 0.1455266 -0.16442373 0.024706725 -0.10233473 -0.14418466 -0.014835107 0.09207971
-0.19662651 -0.3779522 -0.17906973 0.042814266 0.055783518 -0.045736033 -0.12379438 -0.23546818
00000000: f650 573e 8372 b23e 4107 7b3e 3f02 a83e
00000010: 391d 673e 3b8f eb3d a23c c63e ea6d 603e
00000020: 392e 60bc ca50 9a3e e182 ca3e b8dc 983e
00000030: 50ef b03e 2dc8 9dbc 3631 2c3e 0818 a63d
00000040: c42f fe3d e072 273f f220 913e acc5 233d
00000050: ebae be3e 0639 3c3f fd2f 103e 521c 653e
00000060: 3fc4 9b3e 5cc2 993e 7439 833e eebb 633e
00000070: 0430 9d3e 9bca 583d 0e5e cbbd 081c 3fbc
00000080: f965 843e ce85 9f3e 3169 803e 0fd6 b6bd
00000090: c2f5 913d 1349 d6bd 28d0 983d 410e 28bc
000000a0: cf3c 2dbe 4901 4a3e eacc 653e b924 523e
000000b0: ff0b d63e cb61 4a3e da5f a13e 4ae9 0a3e
000000c0: 2261 173e c0b6 693e 2d0c 92be d97b 97be
000000d0: b915 77be e752 423e 3b3d 26be 601c c43d
000000e0: cc12 e83e 2f26 c4bd 0d9f 8ebe 7cec 0a3d
000000f0: 0f71 c63d 0212 66be f8ee 21be fa98 62bc
00000100: ac17 92bd 5e53 673e 30e2 573e a206 81bc
00000110: e776 923e 3517 833e bd2f 4f3d 45d9 1fbe
00000120: c902 60be f883 c1bd f7b5 38be aba3 9ebe
00000130: 587e 87be b164 6cbd 7b7e a63e 5348 1f3c
00000140: bf76 7b3e fb5f 8abd d16d 87be 01b9 d3bd
00000150: 6ea5 b5be c5f2 07be 55c6 083d 3da0 3f3d
00000160: 1134 ee3d 3f69 a3bc 2a9c f7b9 be3e af3d
00000170: 8d82 fd3d 96ce 3ebe 095a 4d3d 25cf 6a3e
00000180: f46b acbe 379f a13d d225 b43c 0c05 373e
00000190: 00b7 033e 68e1 893d 3cbd db3d 9088 01bd
000001a0: b93f 3cbc 7c6e c0bd 22f6 263d 4f0b 6fbe
000001b0: 72c1 36bd 50b7 30be cac0 0abd 3cf8 c93d
000001c0: 4940 a83e f7ae 853e 2f86 0b3e 79b6 e23d
000001d0: b2f8 57be 215e c5bd af21 46be 48a8 adbe
000001e0: e3de 36be 564a 8abe b995 0ebe 0ef6 8fbc
000001f0: 02f8 44bd 4936 f9bd e956 663d 5062 ca3d
00000200: 06a8 bdbe a5c4 dfbc 7f57 993d 5216 23be
00000210: 0726 91be 19da 4fbe c950 f1bd 0679 9fbe
00000220: 71ae a7be 722f 14be cb8e 803d 67bd febd
00000230: f4ce 5d3e 8e78 2a3e eb67 17bd d399 f1bd
00000240: bb09 8cbc b061 c23e 91d7 ab3d 8085 0a3d
00000250: 75c0 413d 228a 4c3c d5d5 35bc 9c86 513d
00000260: 9e5b 883e b5f4 a0bd c5ec c0be f6f2 16be
00000270: 3946 16be 67a1 37be 0d4d 4cbe 3b02 1dbe
00000280: 2934 f7bd 684f 023e 3aeb 1d3e a063 4fbe
00000290: ed3c 69be 4c71 5d3d 8519 423d 0a5d 3bbe
000002a0: 56ca 2a3e 61a0 ce3d 5b78 23be d0bb 9ebe
000002b0: a0e0 07be f2ce 913c 4d82 a83e cd75 493d
000002c0: 11f3 25be cd77 24bd ed74 533d ea5b 48bd
000002d0: c7f4 a63d d1a7 07be c04c c0be 7970 a7bd
000002e0: 1ed1 78be 92fc 4bbe 514e 6cbe 1998 ccbe
000002f0: 2391 7fbe 67ef 80bd 9d4d e6bd f21d 47be
00000300: 028b bebd ff8a db3c 7565 3fbd fe00 61be
00000310: f35b b3be 4dc3 10bd 15de dcbd 216b a6be
00000320: d5e5 bdbc c191 e93c 6e7e f7bd 801d 6dbe
00000330: 4904 7abd 3233 a5be 8c36 07be 7346 87bd
00000340: c2c3 c7bd a652 cdbc 69ac f1bd 61f5 0fbe
00000350: 586d 76be 9e2b 8dbe ea40 7ebe be5d 453e
00000360: 008c 3dbe f314 60be 12e7 c83d ed6c f33b
00000370: 7aa1 89bd 68ee f6bd 094f 01be 9eea 94be
00000380: 76d3 c5be 4973 3ebe 7835 96bd 03fe 5bbd
00000390: 5270 88be 08c4 67be 8415 58be 6f6c 85be
000003a0: 4eb1 bebe 3fbe 393d 27aa 393e d430 1b3e
000003b0: d308 263e dd74 a4bd dedb 513c 221d 5e3e
000003c0: 8c9f e53d ed04 153e b25e 28be c265 ca3c
000003d0: df94 d1bd 25a5 13be f30e 73bc 4994 bc3d
000003e0: 7658 49be f382 c1be 0e5e 37be 035e 2f3d
000003f0: 427d 643d b555 3bbd e887 fdbd 921e 71be

dense1.bias f4 [50]
-0.69449806 -0.5287444 -0.24893045 0.26774925 -0.056607153 -0.37732175 0.86444277 -0.340925
-1.0122 -1.1839182 1.7044483 -0.8644363 -0.87097245 0.030533243 0.52289456 -0.72681344
-0.696932 -0.9982583 -0.37798953 -0.23512301 -1.3328993 0.2236752 0.14747865 0.3557182
-0.6589788 -0.49520415 -0.2051317 -0.5872699 0.38153258 0.3638238 -0.1951099 -0.037449684
-0.33720478 1.1772404 -0.46569884 -0.025765033 -0.115402564 -0.4631406 0.06760577 0.104147136
-0.7293416 0.39671734 -0.40756404 -0.013375205 -0.21131463 -0.76028925 -0.6818368 -0.5158534
0.19824605 -0.2700622
00000000: a0ca 31bf cb5b 07bf a0e7 7ebe 6e16 893e
00000010: e7dc 67bd 5130 c1be 1f4c 5d3f b98d aebe
00000020: c58f 81bf a28a 97bf 5d2b da3f b34b 5dbf
00000030: 0df8 5ebf da20 fa3c 6bdc 053f 7210 3abf
00000040: 236a 32bf db8d 7fbf d887 c1be 16c4 70be
00000050: 729c aabf 1d0b 653e a504 173e b220 b63e
00000060: d6b2 28bf 668b fdbe 0b0e 52be 5257 16bf
00000070: 3d58 c33e 1d47 ba3e e4ca 47be d764 19bd
00000080: 1ba6 acbe d0af 963f 1470 eebe 3111 d3bc
00000090: 2e58 ecbd c420 edbe e574 8a3d 184b d53d
000000a0: 22b6 3abf 891e cb3e 3cac d0be ad23 5bbc
000000b0: dd62 58be 51a2 42bf db8c 2ebf f80e 04bf
000000c0: 0301 4b3e 9845 8abe

dense2.weight f4 [40, 50]
0.12767966 0.18596816 0.21239795 -0.03072658 0.032039832 -0.42888027 0.097687125 -0.57996887
-0.18480133 -0.16896051 -0.13445169 -0.18715073 -0.24626482 0.22223146 -0.32001826 0.26465157
0.28455684 -0.45314372 -0.29223132 0.087611735 -0.091336034 0.079194516 0.009868276 0.12226418
-0.078839354 0.04604172 0.114495434 0.2668557 0.24554613 0.16436772 -0.117859125 0.10574102
-0.18701385 0.08273483 0.09659206 0.29089364 0.025944427 0.028401544 -0.08158367 -0.05391126
-0.16826126 0.17015202 0.4240466 -0.10065263 -0.11103425 0.43977946 0.2424384 -0.057991613
0.2276768 0.075738005 -0.23985487 -0.17001025 -0.03817785 -0.034294758 0.2511359 0.08893935
0.16560988 0.009995848 -0.12989739 -0.14360537 0.24269003 -0.31531584 0.4199556 -0.0077215787
-0.072175376 -0.20481889 -0.28576103 -0.09979826 0.0589447 -0.19659358 -0.24424644 -0.032527767
-0.058635034 0.19944127 -0.088124864 -0.09799604 -0.41426337 -0.07803857 0.2370596 0.14440787
0.066454716 -0.02124808 0.07791981 -0.16290353 0.07306256 -0.112296306 -0.037222322 0.18802035
0.1688697 0.12039341 0.08407123 0.3667226 -0.12498585 0.048664898 0.0075909495 -0.023539236
-0.138308 -0.5519328 0.15250951 -0.18180723 -0.3585431 -0.20615529 -0.030899953 -0.16423228
-0.27531117 -0.11935674 0.06223379 0.18174793 0.079802185 -0.11146789 -0.06296425 0.17855735
-0.032777622 0.08713855 0.2043163 0.090338595 -0.28667763 0.007172418 -0.34048894 -0.25540498
0.13003622 -0.22181618 0.15762669 -0.2488599 0.20060888 0.29345402 -0.28386155 0.016968412
-0.15671755 0.02660468 0.18895374 0.24508992 -0.2329764 0.48226243 -0.07981957 -0.3768114
0.014958774 -0.08856663 0.024691166 -0.081330985 0.2061851 -0.25106332 0.4153531 0.23827119
-0.060393214 0.12762977 0.14588968 0.10666084 -0.09979937 -0.08850128 0.18788978 -0.072878025
-0.2874427 0.13629715 -0.21886915 0.046913166 0.21532914 0.27716026 -0.022117373 0.07235179
-0.009921988 -0.20101438 -0.14613718 0.22599897 0.044518404 -0.29083398 -0.0958892 -0.24668905
-0.11994356 0.12823993 -0.09722317 -0.16778263 0.058711976 0.2971241 0.24330233 0.37768403
0.20109604 -0.2023584 -0.049173903 0.20278503 0.11732583 -0.03443494 -0.1724269 0.064814106
-0.16613194 0.18858953 0.19216578 -0.20049068 -0.38857102 -0.0024750105 0.35204884 -0.057552125
-0.1696359 -0.033600755 0.049745448 -0.45158976 0.07722171 0.16990441 0.0666463 0.08843677
-0.337847 0.010002117 -0.04838798 -0.15060303 0.07190523 0.27947098 -0.112860784 -0.22070551
-0.4433894 0.12984084 0.044682063 -0.26207766 -0.39735803 0.045097552 0.25241357 0.17159663
0.3303756 -0.04720725 -0.10326713 0.21568345 0.09264631 0.082338944 -0.15694597 -0.15263465
-0.12935284 0.023355063 -0.105351985 0.030221554 0.20080076 -0.0014996378 -0.20858164 0.0020819283
0.23995115 -0.021010697 -0.21620452 0.14624546 -0.12165379 -0.07397286 -0.5791714 0.20409378
0.09920403 0.0798109 -0.23290536 0.051703654 0.23639056 0.26366073 0.2589337 -0.107525535
-0.024109513 -0.006811822 -0.4245942 -0.11041914 -0.09048748 -0.3851666 -0.06236827 -0.254222
00000000: 75be 023e 706e 3e3e d97e 593e 4fb6 fbbc
00000010: 333c 033d 3296 dbbe 3010 c83d d778 14bf
00000020: 8f3c 3dbe fc03 2dbe b4ad 09be 71a4 3fbe
00000030: d82c 7cbe a590 633e 6fd9 a3be 6980 873e
00000040: 6fb1 913e 7402 e8be 589f 95be c86d b33d
00000050: 630e bbbd bc30 a23d 8dae 213c a465 fa3d
00000060: 8776 a1bd 3e96 3c3d 957c ea3d 4fa1 883e
00000070: 7270 7b3e 0350 283e 2060 f1bd bf8e d83d
00000080: 8f80 3fbe e170 a93d 0fd2 c53d 03f0 943e
00000090: 6889 d43c 5baa e83c 5715 a7bd 0ed2 5cbd
000000a0: ae4c 2cbe 553c 2e3e a31c d93e f722 cebd
000000b0: ed65 e3bd c62a e13e c641 783e 9d88 6dbd
000000c0: 1b24 693e 871c 9b3d 849c 75be 2b17 2ebe
000000d0: 6160 1cbd a978 0cbd e294 803e d525 b63d
000000e0: a395 293e a0c5 233c d203 05be 490d 13be
000000f0: bc83 783e 1471 a1be 6c04 d73e 4c05 fdbb
00000100: afd0 93bd 0bbc 51be 454f 92be 0863 ccbd
00000110: ff6f 713d d44f 49be bd1b 7abe d63b 05bd
00000120: 4a2b 70bd 553a 4c3e cf7a b4bd 26b2 c8bd
00000130: 541a d4be b0d2 9fbd c0bf 723e a8df 133e
00000140: 6919 883d 7410 aebc 6c94 9f3d 2fd0 26be
00000150: d3a1 953d 9bfb e5bd 6f76 18bd 6888 403e
00000160: 2eec 2c3e d290 f63d 892d ac3d 11c3 bb3e
00000170: 95f8 ffbd d854 473d 80bd f83b 5bd5 c0bc
00000180: 9da0 0dbe 784b 0dbf 742b 1c3e ad2b 3abe
00000190: f692 b7be 5f1a 53be e621 fdbc 822c 28be
000001a0: 96f5 8cbe 4e71 f4bd dce8 7e3d 211c 3a3e
000001b0: 546f a33d 4749 e4bd 67f3 80bd bdd7 363e
000001c0: d441 06bd b275 b23d 4b38 513e 7103 b93d
000001d0: 69c7 92be 9a06 eb3b 9154 aebe 71c4 82be
000001e0: 3728 053e c823 63be e468 213e 21d5 7ebe
000001f0: 6a6c 4d3e 9b3f 963e 4d56 91be 5701 8b3c
00000200: 917a 20be 0ff2 d93c 177d 413e daf8 7a3e
00000210: 5e91 6ebe 1aeb f63e 7178 a3bd 6ced c0be
00000220: a515 753c 6c62 b5bd 2145 ca3c dc90 a6bd
00000230: 3022 533e 5f8b 80be 29a9 d43e 5dfd 733e
00000240: e05e 77bd 61b1 023e 1b64 153e 0071 da3d
00000250: 9d63 ccbd 2940 b5bd 2e66 403e 1341 95bd
00000260: b12b 93be 7b91 0b3e 3c1f 60be 0528 403d
00000270: 3e7f 5c3e f3e7 8d3e 7e2f b5bc 2d2d 943d
00000280: d58f 22bc b7d6 4dbe fca4 15be 466c 673e
00000290: ee58 363d 31e8 94be 8f61 c4bd 0e9c 7cbe
000002a0: f8a4 f5bd 5451 033e f11c c7bd 36cf 2bbe
000002b0: f87b 703d a620 983e 3f24 793e cd5f c13e
000002c0: 1fec 4d3e 0a37 4fbe 936a 49bd e1a6 4f3e
000002d0: 8648 f03d a70b 0dbd ad90 30be 42bd 843d
000002e0: 7e1e 2abe 9d1d 413e 1bc7 443e 6e4d 4dbe
000002f0: c8f2 c6be c933 22bb bf3f b43e c7bb 6bbd
00000300: 09b5 2dbe f2a0 09bd e2c1 4b3d c636 e7be
00000310: 6a26 9e3d 6cfb 2d3e db7d 883d 561e b53d
00000320: 48fa acbe ebdf 233c 7932 46bd ae37 1abe
00000330: 0d43 933d d216 8f3e 8e23 e7bd a000 62be
00000340: ef03 e3be fff4 043e 8a04 373d 0b2f 86be
00000350: 8372 cbbe 36b8 383d 5a3c 813e 07b7 2f3e
00000360: fe26 a93e 645c 41bd b87d d3bd 1fdc 5c3e
00000370: 59bd bd3d 52a1 a83d 72b6 20be 424c 1cbe
00000380: 1275 04be 1e53 bf3c c8c2 d7bd 3193 f73c
00000390: b79e 4d3e 7f8f c4ba 6d96 55be f670 083b
000003a0: c1b5 753e a01e acbc b864 5dbe 5fc1 153e
000003b0: 9f25 f9bd 157f 97bd 9444 14bf f6fd 503e
000003c0: 7c2b cb3d e673 a33d be7e 6ebe 36c7 533d
000003d0: 5e10 723e 8afe 863e f592 843e 5936 dcbd
000003e0: 5081 c5bc b435 dfbb 6964 d9be 6e23 e2bd
000003f0: 8051 b9bd 8e34 c5be df75 7fbd 6329 82be

dense2.bias f4 [40]
0.018541884 1.5265133 -0.60613275 1.43698 0.5800523 -0.17373362 0.2891505 -1.0792811
-0.13991334 0.05362068 0.33042052 0.91177666 -0.32335404 1.2024503 -0.58144325 -0.29682297
0.1967987 -0.13518207 0.05904486 1.2838126 1.3206104 2.0794225 -0.54806405 0.23129573
0.6419063 0.81909347 0.05607653 1.1284218 1.0461683 1.0651617 -0.93394697 1.5305105
-1.0870383 0.2724456 0.33386332 -0.072065406 -0.26663256 -0.3197761 0.7048179 0.51955426
00000000: 26e5 973c ca64 c33f 842b 1bbf f6ee b73f
00000010: 4f7e 143f 3ae7 31be 890b 943e e225 8abf
00000020: 7145 0fbe 5ca1 5b3d e12c a93e 326a 693f
00000030: a98e a5be e4e9 993f 77d9 14bf 2ef9 97be
00000040: 9985 493e 2b6d 0abe 06d9 713d f953 a43f
00000050: c309 a93f 4215 0540 ed4d 0cbf cad8 6c3e
00000060: f953 243f 1cb0 513f 81b0 653d 2070 903f
00000070: d8e8 853f 3857 883f 2617 6fbf c5e7 c33f
00000080: 1224 8bbf fd7d 8b3e 22f0 aa3e 0797 93bd
00000090: 1084 88be b1b9 a3be f26e 343f 8201 053f

dense3.weight f4 [30, 40]
-0.008491266 -0.13541913 -0.3226469 0.261483 -0.03676512 -0.002972422 0.15280138 0.17730257
-0.46224675 -0.042260747 0.06315155 0.27036545 0.1689779 -0.05237686 -0.32149294 0.07190767
0.323213 -0.12272579 0.050616264 0.12302716 -0.1399597 0.39995277 -0.40944353 0.031470172
-0.07468671 -0.27802485 -0.1103591 0.09226033 0.0881353 -0.07984978 0.3133604 0.08633189
0.1978616 0.08574786 0.2865013 -0.19679129 0.054969538 -0.07266176 -0.025836948 0.092351325
-0.212751 0.13473728 -0.16846262 0.13914376 -0.1998912 -0.3109473 0.1587021 0.19463062
-0.16490258 -0.02819945 -0.017791657 0.10550904 0.23838693 -0.15183824 0.1728609 0.37407184
0.4606019 0.22177196 -0.019268323 0.041779507 0.35619774 0.110519685 -0.30233577 0.020431751
-0.017739179 0.20780031 -0.16869162 0.047103923 -0.1557919 0.0074638934 -0.3378729 0.0335773
0.08974637 -0.14015123 -0.094790444 -0.48336643 -0.10258954 0.021014877 0.026181834 -0.12974651
-0.092072636 -0.03116018 -0.6866488 0.1892632 0.10145666 -0.033056393 -0.19991098 0.028373934
0.18598476 -0.169759 -0.11043179 -0.08690518 0.01701378 0.028810633 0.1161397 0.03302708
-0.067410834 -0.18055858 -0.38565865 0.12532674 0.42990044 0.16311343 0.27214116 0.05995397
-0.67133003 -0.07548364 -0.38269705 -0.16006894 0.25323972 -0.076221436 -0.24353528 0.19232212
0.044609714 0.28263187 0.32862616 -0.0019941686 -0.12656379 -0.19633335 -0.21140826 -0.25987622
-0.2111213 0.30280015 -0.16006541 0.009922509 0.1764821 -0.6868736 0.17058599 0.29358685
0.07488701 0.13853547 -0.11099507 -0.45494145 -0.14670722 0.2708185 0.09464999 -0.23434775
-0.20935278 0.00038062155 -0.3592583 -0.0064613917 0.19255643 0.15129338 -0.04388274 0.17579325
-0.16033438 0.10204679 -0.018168626 -0.24542552 -0.2498065 0.14962502 -0.3778186 -0.020442555
0.136336 0.43110967 0.1565096 0.18697509 0.14894079 0.060984507 0.12092195 -0.5655547
-0.2913804 0.23876642 -0.26993504 0.013684177 -0.029311558 -0.33852714 -0.079666816 0.22325067
-0.17782687 0.10348005 -0.34683532 0.07261824 0.11095793 0.030599307 -0.3141852 -0.09529375
0.015307111 -0.06836869 -0.45225713 -0.10170558 -0.03219559 0.025407473 0.21286611 0.17821318
-0.17062533 0.11294323 0.07582092 0.09725879 0.14847976 0.2503033 0.049785145 0.28047928
0.0071457583 0.048464704 0.12527703 -0.29030973 -0.009686151 -0.010148828 0.15273322 0.1490944
0.09345751 0.29716146 -0.14148384 0.19479619 -0.46413046 0.38077858 0.08091071 -0.051848542
-0.30305308 -0.066508055 0.2784854 -0.40180635 -0.17190687 0.18871589 0.02390466 0.26600644
-0.08086507 -0.2726135 0.37260753 0.23570915 0.096628666 0.09418967 -0.44374016 0.2595744
0.2848625 0.06352683 -0.050636597 0.018111784 -0.124836534 -0.27861086 -0.50074273 -0.21657358
-0.14673075 0.113581754 -0.0054246844 0.2382807 -0.05101868 -0.033577096 0.04563022 -0.065078124
0.03533638 -0.39521897 0.06341511 -0.29332623 -0.06590793 0.35076183 -0.074971676 -0.05662905
0.14278074 0.14537528 -0.1715752 -0.050494935 0.08814454 -0.08296809 -0.042321805 0.044731412
00000000: f31e 0bbc 50ab 0abe f931 a5be 1ae1 853e
00000010: 0697 16bd f7cc 42bb f777 1c3e ce8e 353e
00000020: 9bab ecbe 9b19 2dbd 9a55 813d 576d 8a3e
00000030: 8b08 2d3e 1e89 56bd b99a a4be 5444 933d
00000040: 2d7c a53e a957 fbbd 0053 4f3d aaf5 fb3d
00000050: 9851 0fbe 9cc6 cc3e 95a2 d1be dee6 003d
00000060: 59f5 98bd 4659 8ebe f403 e2bd fcf2 bc3d
00000070: 4880 b43d 4888 a3bd c670 a03e c6ce b03d
00000080: 3b9c 4a3e 939c af3d 4cb0 923e a883 49be
00000090: bd27 613d b0cf 94bd 02a8 d3bc b122 bd3d
000000a0: 66db 59be 92f8 093e 7781 2cbe b47b 0e3e
000000b0: 47b0 4cbe 7c34 9fbe ce82 223e 404d 473e
000000c0: 39dc 28be 8802 e7bc cfbf 91bc 2015 d83d
000000d0: b41b 743e 7c7b 1bbe 7302 313e 5886 bf3e
000000e0: 03d4 eb3e 3018 633e 9ad8 9dbc fd20 2b3d
000000f0: 8d5f b63e 2558 e23d c1cb 9abe 7d60 a73c
00000100: c151 91bc 9bc9 543e 7fbd 2cbe 0bf0 403d
00000110: e987 1fbe ad93 f43b adfd acbe 5a88 093d
00000120: f2cc b73d ce83 0fbe 7e21 c2bd ce7b f7be
00000130: 771a d2bd 6427 ac3c 497b d63c 45dc 04be
00000140: 9490 bcbd a243 ffbc 37c8 2fbf 36ce 413e
00000150: 82c8 cf3d 2466 07bd 77b5 4cbe 7470 e83c
00000160: ca72 3e3e 4ed5 2dbe 102a e2bd 58fb b1bd
00000170: 7c60 8b3c 4704 ec3c a7da ed3d 6747 073d
00000180: b10e 8abd 59e4 38be 0d75 c5be a755 003e
00000190: e91b dc3e 3507 273e 1656 8b3e 4b92 753d
000001a0: 49dc 2bbf 2b97 9abd def0 c3be 1de9 23be
000001b0: a3a8 813e fc19 9cbd 5061 79be 17f0 443e
000001c0: adb8 363d 20b5 903e b041 a83e 99b0 02bb
000001d0: f099 01be 9c0b 49be 687b 58be 7f0e 85be
000001e0: 2f30 58be 9f08 9b3e 30e8 23be 0592 223c
000001f0: b9b7 343e f3d6 2fbf 18ae 2e3e 0451 963e
00000200: 5c5e 993d 3edc 0d3e 6251 e3bd 16ee e8be
00000210: 6b3a 16be b9a8 8a3e dbd7 c13d dbf8 6fbe
00000220: 9360 56be 298e c739 b4f0 b7be 15ba d3bb
00000230: 832d 453e a7ec 1a3e 63be 33bd 2503 343e
00000240: b22e 24be e8fd d03d 5fd6 94bc d450 7bbe
00000250: 46cd 7fbe 4d37 193e 7171 c1be 2577 a7bc
00000260: aa9b 0b3e 68ba dc3e 0d44 203e 6676 3f3e
00000270: ef83 183e e4ca 793d eda5 f73d 31c8 10bf
00000280: d02f 95be 2f7f 743e ed34 8abe 9933 603c
00000290: cb1e f0bc 6e53 adbe 5b28 a3bd d39b 643e
000002a0: 3f18 36be 59ed d33d 6694 b1be dfb8 943d
000002b0: e93d e33d 66ab fa3c e2dc a0be 5f29 c3bd
000002c0: adca 7a3c e204 8cbd 3f8e e7be 044b d0bd
000002d0: 86df 03bd 5523 d03c 93f9 593e 847d 363e
000002e0: 68b8 2ebe c84e e73d 0048 9b3d 9e2f c73d
000002f0: 140b 183e c127 803e 82eb 4b3d fb9a 8f3e
00000300: f726 ea3b ed82 463d 9f48 003e 7aa3 94be
00000310: a9b2 1ebc 4547 26bc 1966 1c3e 34ac 183e
00000320: a766 bf3d 8c25 983e 24e1 10be a778 473e
00000330: 82a2 edbe 69f5 c23e 84b4 a53d 235f 54bd
00000340: c629 9bbe 6035 88bd a395 8e3e 90b9 cdbe
00000350: 5b08 30be bd3e 413e b5d3 c33c ff31 883e
00000360: 969c a5bd ff93 8bbe 6ac6 be3e bd5d 713e
00000370: 40e5 c53d 84e6 c03d e931 e3be f0e6 843e
00000380: 7fd9 913e 5b1a 823d 5268 4fbd 2a5f 943c
00000390: 4caa ffbd 15a6 8ebe ad30 00bf 77c5 5dbe
000003a0: 9640 16be 8d9d e83d 8dc1 b1bb dbff 733e
000003b0: f7f8 50bd 2388 09bd c1e6 3a3d ae47 85bd
000003c0: e1bc 103d 245a cabe c8df 813d db2e 96be
000003d0: bdfa 86bd 0e97 b33e c08a 99bd ddf3 67bd
000003e0: 1d35 123e 42dd 143e 69b1 2fbe c7d3 4ebd
000003f0: 2085 b43d 2deb a9bd a159 2dbd 4938 373d

dense3.bias f4 [30]
0.61187065 0.31735876 1.0806873 0.24598572 0.9967571 1.1890341 -0.31771925 0.9735146
0.23363982 0.22546133 -0.055003736 0.09288269 0.83430356 0.4049449 -0.7806607 0.086417064
-0.116648234 1.6623241 0.2156065 -0.079472646 0.7898928 0.38980004 0.7280158 1.6735163
0.037945755 -0.47849718 -0.22629121 0.9510969 -0.31441307 -0.95726603
00000000: 8ea3 1c3f d97c a23e f653 8a3f aee3 7b3e
00000010: 792b 7f3f 4532 983f 19ac a2be 4138 793f
00000020: 473f 6f3e 56df 663e 994b 61bd 4839 be3d
00000030: eb94 553f f054 cf3e 61d9 47bf 6efb b03d
00000040: 45e5 eebd 09c7 d43f f3c7 5c3e 8ec2 a2bd
00000050: 6a36 4a3f df93 c73e 3e5f 3a3f c835 d63f
00000060: 026d 1b3d 95fd f4be e2b8 67be 167b 733f
00000070: c0fa a0be 630f 75bf

dense4.weight f4 [10, 30]
0.19125995 0.3103602 -0.5549442 -0.40417928 -0.15154606 0.13987465 -0.22239837 0.054072525
0.122421764 -0.4001426 0.026929744 0.08744821 -0.3647115 -0.32888517 0.07863943 0.019239001
0.033047754 0.34301102 0.1285883 -0.0762355 -0.15786977 0.2304165 0.18841408 -0.23201959
0.06641416 -0.100367635 -0.23757032 0.1811175 -0.41162765 0.19740002 -0.10393062 -0.051273607
-0.11913407 -0.037988704 -0.27828485 -0.2351903 0.174192 -0.06438572 0.053729672 0.2958217
0.00042633497 0.30664724 -0.38186932 -0.40829653 0.14610021 -0.4185782 0.14492646 -0.2344624
-0.35033146 -0.050979096 -0.38639462 -0.21761282 0.30422476 -0.49518338 -0.16249464 0.31759256
0.09193913 -0.57766914 0.555269 0.31278795 0.0989989 0.16406298 0.14143406 0.1175937
-0.035072204 0.27907237 0.14889923 -0.089236625 0.13193884 -0.9081073 -0.039668366 -0.28966215
-0.066160746 -0.13530536 -0.03091453 0.28462017 -0.31917042 -0.04912942 -0.23839049 -0.1760044
0.023721829 0.04046527 -0.010697943 0.25420684 0.02969451 -0.2191625 0.06814141 0.14875117
-0.119103104 -0.20398623 0.188779 -0.1164604 -0.25820586 0.14009586 0.1376142 -0.13630928
0.070221476 -0.34823447 -0.01490925 0.07819308 -0.09430045 -0.20631716 0.16650395 0.17969763
-0.16008691 -0.00084816676 -0.041203123 -0.23417063 -0.03328659 0.02938767 0.119818665 -0.040451113
-0.2918467 -0.108739465 -0.020084575 0.08140638 0.09441882 -0.015238377 -0.46955475 -0.12113055
0.052770745 -0.21936145 0.33701897 0.40612036 -0.12531106 0.21921721 -0.074789725 -0.025479767
0.24631976 0.45819545 -0.26000884 -0.29257858 -0.13474116 -0.026923707 -0.31314325 0.012742235
0.024729073 0.16253154 -0.06086405 -0.23696625 0.08422713 0.123584025 -0.040768992 0.038308904
0.16006315 -0.05710397 -0.13393235 0.23116998 -0.22239438 -0.09615819 0.13216475 -0.1310523
-0.02516351 0.13044663 0.0080338335 -0.07001797 -0.2551942 -0.31812108 -0.13127276 -0.7328814
-0.20366575 -0.26006803 0.19099261 0.2397071 0.12949856 -0.05674562 -0.22187003 -0.24347273
-0.12639792 0.1815617 0.096243925 0.1827287 -0.38140175 -0.21183966 -0.054934278 -0.08732516
0.067280546 0.055660017 -0.113867484 -0.0152337365 0.04873595 0.013980119 -0.25150114 -0.32800394
-0.05572446 -0.36101338 -0.42843968 0.24474078 -0.4339163 0.36814144 -0.16757245 0.22284925
0.03922664 0.009614881 -0.1476214 -0.0047512995 0.30570537 -0.1976626 -0.11433483 -0.15591961
0.24030681 -0.45511276 -0.09306958 0.28408587 -0.6511564 -0.18283843 0.12558727 -0.22830366
-0.9258593 -0.6529686 -0.17680882 -0.330789 0.01830547 -0.03948283 -0.06194614 0.276504
0.1324068 -0.22526388 0.22171095 -0.41526017 -0.18857674 -0.24725594 -0.10705814 0.06198393
0.026306454 0.028952256 -0.31931794 -1.0459876 0.124056354 -0.052848008 0.21065716 0.1957361
-0.25001958 -0.3926495 0.5870488 -0.41375446 0.29989833 0.15080906 0.018557256 -0.20035055
-0.48660228 -0.11329235 -0.34830287 -0.021899624 0.23988016 0.2945973 0.24368887 0.4259299
0.03796281 -0.3199972 -0.13945697 0.22608465 -0.1462637 -0.13729165 -0.39109087 -0.07122254
00000000: a6d9 433e 88e7 9e3e d310 0ebf 96f0 cebe
00000010: e42e 1bbe 4d3b 0f3e 66bc 63be 277b 5d3d
00000020: 43b8 fa3d 7edf ccbe c49b dc3c 0c18 b33d
00000030: 77bb babe a363 a8be b60d a13d 1c9b 9d3c
00000040: 155d 073d 249f af3e a7ac 033e 5c21 9cbd
00000050: 9da8 21be 4ef2 6b3e 9fef 403e 8b96 6dbe
00000060: 2604 883d 8c8d cdbd a245 73be de76 393e
00000070: dcc0 d2be 3b23 4a3e 94d9 d4bd 4604 52bd
00000080: 90fc f3bd 0b9a 1bbd 5a7b 8ebe bad5 70be
00000090: 635f 323e a9dc 83bd a513 5c3d f175 973e
000000a0: b685 df39 de00 9d3e 6084 c3be 3e0c d1be
000000b0: 4b9b 153e e24f d6be 9a67 143e e916 70be
000000c0: a55e b3be 75cf 50bd 84d5 c5be e5d5 5ebe
000000d0: 59c3 9b3e ad88 fdbe ff64 26be 7e9b a23e
000000e0: 954a bc3d 20e2 13bf 1c26 0e3f be25 a03e
000000f0: efbf ca3d 2000 283e 17d4 103e f7d4 f03d
00000100: dfa7 0fbd 93e2 8e3e 0a79 183e b1c1 b6bd
00000110: fa1a 073e b879 68bf 4c7b 22bd 994e 94be
00000120: 497f 87bd 7d8d 0abe 7840 fdbc bcb9 913e
00000130: 4e6a a3be ee3b 49bd a31c 74be 7f3a 34be
00000140: 4854 c23c e9be 253d 6d46 2fbc 6627 823e
00000150: e741 f33c 226c 60be b98d 8b3d 3a52 183e
00000160: 54ec f3bd c4e1 50be 484f 413e ca82 eebd
00000170: 8f33 84be 4a75 0f3e bdea 0c3e a994 0bbe
00000180: 47d0 8f3d ca4b b2be ed45 74bc b223 a03d
00000190: 9820 c1bd ce44 53be 0380 2a3e a802 383e
000001a0: d3ed 23be 8257 5eba 9bc4 28bd 6dca 6fbe
000001b0: 8557 08bd 69be f03c 7d63 f53d 11b0 25bd
000001c0: ee6c 95be ccb2 debd 6888 a4bc 63b8 a63d
000001d0: a85e c13d 63aa 79bc 7b69 f0be 4b13 f8bd
000001e0: 2326 583d 4aa0 60be c08d ac3e 02ef cf3e
000001f0: 8b51 00be 7a7a 603e 5b2b 99bd f2ba d0bc
00000200: 3f3b 7c3e 9898 ea3e e11f 85be dccc 95be
00000210: 96f9 09be 1b8f dcbc 5054 a0be cfc4 503c
00000220: a094 ca3c ab6e 263e 954c 79bd 48a7 72be
00000230: 467f ac3d 9f19 fd3d 63fd 26bd cce9 1c3d
00000240: 98e7 233e dae5 69bd 9025 09be d3b7 6c3e
00000250: 5abb 63be 96ee c4bd 3256 073e 9332 06be
00000260: b523 cebc cd93 053e 57a0 033c 9565 8fbd
00000270: d0a8 82be c4e0 a2be 5e6c 06be 1e9e 3bbf
00000280: c18d 50be a327 85be 9193 433e c775 753e
00000290: 459b 043e 186e 68bd e631 63be ea50 79be
000002a0: 756e 01be 4feb 393e 891b c53d 3b1d 3b3e
000002b0: 1747 c3be 7fec 58be c402 61bd 89d7 b2bd
000002c0: 62ca 893d c2fb 633d 5b33 e9bd ec96 79bc
000002d0: 599f 473d de0c 653c c2c4 80be 22f0 a7be
000002e0: 553f 64bd bfd6 b8be 725c dbbe 549d 7a3e
000002f0: 472a debe 097d bc3e 1d98 2bbe 9832 643e
00000300: 1dac 203d bc87 1d3c 102a 17be cab0 9bbb
00000310: 6a85 9c3e 1168 4abe 6128 eabd 64a9 1fbe
00000320: fd12 763e 8a04 e9be 449b bebd b473 913e
00000330: 30b2 26bf ff39 3bbe f399 003e 6fc8 69be
00000340: 1d05 6dbf f328 27bf 5f0d 35be 2d5d a9be
00000350: 5af5 953c bfb8 21bd 3cbb 7dbd ef91 8d3e
00000360: a695 073e 93ab 66be 3208 633e fb9c d4be
00000370: 431a 41be a930 7dbe 4c41 dbbd dde2 7d3d
00000380: a280 d73c 482d ed3c a47d a3be ece2 85bf
00000390: 4211 fe3d 2777 58bd 83b6 573e 0b6f 483e
000003a0: 9102 80be 5b09 c9be d548 163f a0d7 d3be
000003b0: 468c 993e b16d 1a3e 6305 983c b228 4dbe
000003c0: ef23 f9be d205 e8bd c154 b2be d766 b3bc
000003d0: 25a3 753e 75d5 963e 9389 793e 7c13 da3e
000003e0: e47e 1b3d acd6 a3be cfcd 0ebe bc82 673e
000003f0: 27c6 15be 2f96 0cbe 103d c8be 20dd 91bd

dense4.bias f4 [10]
0.16316557 -0.22000417 -0.033975217 0.21700981 0.19892281 -0.024459386 0.7453376 -0.75391394
0.07777828 -0.7765538
00000000: e014 273e c648 61be 9929 0bbd d237 5e3e
00000010: 6cb2 4b3e 0d5f c8bc 72ce 3e3f 8100 41bf
00000020: 384a 9f3d 3bcc 46bf
