models_weight/SNet/SNet_model_B_mnist_Adam.pt (torch, 174245 bytes, 8 tensors)

dense1.weight f4 [50, 784]
00000000: 4d32 083d 8349 c9bc 2e0b c0bc cc42 abbc
00000010: 276f 863c 952b a3bc 6ed4 08bc c14f b53b
00000020: 93d1 f6bc 7e28 d1bc ecb5 963c 054f 6dbc
00000030: 6384 a63d bf02 8f3d 2cfc 45bd dbd9 d13c
00000040: 1a1a e53c 2e15 b4bc 25c5 2d3b ecc8 063d
00000050: 058c cabc ecf9 96bc 384e ebbb 8ca6 d13c
00000060: 2512 eabc 3cde c9bc c09a a03b ee31 163c
00000070: ec7c 99bc d33d dcbc 0384 893c 95cf 88bc
00000080: f320 0f3d 62c7 493d 2b92 5c3c 7ae4 433c
00000090: 89d1 873d 6259 b73e f544 113f 414b 263f
000000a0: af49 853f 09bb 0d3f e2b1 3cbb adaf 093f
000000b0: f02f e63d 448f 55bd b33d 593e 637b d33e
000000c0: 8c84 ed3e 4a7a 813e e1e6 913d 9f5c 16b8
000000d0: d53e a43c 2cdc ddbc 8ec3 683c bcba 0dbd
000000e0: d827 eabc 7376 05bd 09bf 1f3d 3538 2f3e
000000f0: 0d54 963e d294 903d c49a 913c 5d92 233d
00000100: 99a0 b03e 23a0 113f 9052 9abe 13e6 623e
00000110: 5d24 0abe 6cac 17bf 6173 0cbf fafc de3e
00000120: 499e bc3d ece5 443e 3597 1d3f 5bda 053e
00000130: 5b1d f83e f761 113f c048 b53e a6c7 843e
00000140: 4129 bc3d 8e98 ba3d 77c1 b3bb fa37 88bc
00000150: 1c40 b5bc f3d4 973c cee4 b9be cd58 153e
00000160: 860e 4d3e 5a1a 9cbc 48ab d0be 5e0f a9be
00000170: eace 1abf 0b61 48bf 5201 febe 0549 c23d
00000180: bd2c ccbe 7b4e 253e e791 8ebe 3113 dbbd
00000190: 332b 103d 8add 88be 0d77 09bf fcda 89be
000001a0: ced3 5b3e ae94 9f3d 4b78 acbe c5ee 88bc
000001b0: d3b0 39bd 2508 363f 9ca5 133f 934e 75bb
000001c0: 13a0 f1bc dc78 72bc b782 9fbe 21a2 93be
000001d0: ba15 ea3d b94b 033e 8f20 c43c 883b 6dbe
000001e0: 3265 9abf 1ebc 89be 5243 f3bd 0641 a03d
000001f0: 2fd2 42be 5490 15bf 17b9 7fbe 38ab 1fbe
00000200: 1c64 89be 958d 6a3e 39ce 8f3c 6d5c d7be
00000210: b9cb 773e 66da c73d ac02 82be 628c c83d
00000220: 36bf 563f b981 203f 2583 023f e953 523e
00000230: 2a10 693c 5598 9d3c 5c9c 2c3e dea0 15bf
00000240: 1183 03bf 67ba 36bf b25a dfbe 7bf3 d7be
00000250: dfbe 0f3d e681 b83d 4c2c 91bd 4608 913e
00000260: e035 993d 6fa4 a53c 1f1e fb3d e9f8 4cbe
00000270: f433 d0bd 3020 60bc f5c0 1dbe ec42 71bd
00000280: 3e63 d43d 62a5 98bc 8f14 733b 2e8b 02bf
00000290: b7cd 413e a133 af3e 19f3 793f b333 a13e
000002a0: 4e9c aabc 1306 b8bd f296 ee3e 6022 88bf
000002b0: c4d9 09bf 9158 25bf bc8b 81bf 0440 debd
000002c0: f27a bbbd cdcc 3e3d 19e3 17bd 16c3 803e
000002d0: fb2a 6e3e 231e 1d3e f3f7 f33d a3fd 1f3d
000002e0: 8579 273e 591e 5d3e 412c 5e3e 80bc 803e
000002f0: 7206 563e ae38 213e 1dc8 a43e f05f a73e
00000300: ef15 6f3e ed9c d93e a59f 35be 039a 753d
00000310: 0154 bf3c f27f 733e 3978 d13d 200d 55bf
00000320: 4bc7 ccbe 4a9e 82be 8196 b1be ebd4 c3be
00000330: c47c a23e a515 a43d 8dcd 0dbd 93c9 0c3e
00000340: 64b3 0d3e 1f11 e83d 58f5 32be 781f 863e
00000350: 2e67 af3e e12a 023c dacf 073f e93e c43e
00000360: 8e8d 503e a808 423e 2d09 023e 3dff 9d3e
00000370: 95e9 0e3e a912 d13e b58f a93c da1b acbd
00000380: 3446 5abf d3d8 443f ba70 7fbe bbfd 023e
00000390: 3b5f d03d 3042 4cbe 433e f9bb c18a 96bd
000003a0: a241 883e b91b 10be c1d7 e0bc eb2f 093e
000003b0: c01b 0f3c 5428 413e df6c ed3c e698 933d
000003c0: 963c 503e 33f6 763e 7865 213e 068c 6b3e
000003d0: deac 87bd b349 31be 31d3 d9bd 6437 10be
000003e0: 6993 83bc 1f6e 953d 0d7c f83e 3bf1 ca3e
000003f0: 9a12 18bd a9da f13e 9492 6ebe 020a 2a3f
0.033251096 -0.024571186 -0.02344283 -0.020905875 0.016410423 -0.019918242 -0.008351428 0.005533189
-0.03012923 -0.025532003 0.018397294 -0.014484172 0.081307195 0.06982946 -0.048336193 0.025616577
0.027966548 -0.021982756 0.0026515212 0.032906458 -0.02472497 -0.018429719 -0.0071809553 0.025592111
-0.028573105 -0.024642102 0.00490126 0.009167178 -0.018736325 -0.026884949 0.01678658 -0.016700545
0.034943532 0.049262412 0.013462584 0.0119563285 0.066317625 0.3581038 0.56745845 0.6495858
1.0413111 0.5536352 -0.002879255 0.53783685 0.11239612 -0.052138582 0.21214943 0.41305074
0.46390188 0.25288612 0.07124115 -3.5849047e-05 0.020049492 -0.027082525 0.01420678 -0.034601912
-0.028583452 -0.032583665 0.039000545 0.17111285 0.29361 0.07059635 0.017773993 0.039934505
0.34497526 0.56884974 -0.30141115 0.22158079 -0.13490434 -0.5924747 -0.54863554 0.4355238
0.09209878 0.19228333 0.6155885 0.13071577 0.48459896 0.5679011 0.35407066 0.2593357
0.09187556 0.09111129 -0.0054857093 -0.016628254 -0.022125296 0.01853416 -0.36307377 0.14584656
0.20025072 -0.019055534 -0.40755677 -0.33019537 -0.60471976 -0.78273076 -0.49610382 0.094865836
-0.39877883 0.16143219 -0.2784569 -0.1069702 0.035197448 -0.2673152 -0.5369728 -0.26924884
0.21467516 0.0779203 -0.33685526 -0.016715417 -0.04533465 0.7110618 0.57674575 -0.0037430867
-0.029495275 -0.014799323 -0.31154415 -0.28834632 0.11429925 0.12821855 0.023941306 -0.2316724
-1.2062132 -0.26901335 -0.11878075 0.07824902 -0.19025491 -0.5842335 -0.2497295 -0.15592659
-0.2683419 0.22905572 0.01755439 -0.42062703 0.24198808 0.09758453 -0.25392663 0.09792401
0.83885515 0.6269794 0.5098136 0.20539822 0.014225045 0.019237677 0.16856521 -0.5844859
-0.51371866 -0.7137818 -0.43623883 -0.42177948 0.03509414 0.09009151 -0.07088527 0.28326625
0.07480979 0.02022001 0.122616045 -0.20016827 -0.10166159 -0.013679549 -0.15405639 -0.058901712
0.103704914 -0.018633548 0.0037091111 -0.5099362 0.1892613 0.34219077 0.9763656 0.31484756
-0.020826485 -0.089855336 0.46599537 -1.063549 -0.5384791 -0.64588267 -1.0120769 -0.10852054
-0.09154309 0.046582032 -0.03708181 0.2514884 0.23258583 0.15343527 0.11912527 0.039060246
0.1635495 0.21593608 0.21696569 0.25143814 0.20900896 0.15744278 0.32183924 0.32690382
0.23348211 0.42502537 -0.17736681 0.05996133 0.023355486 0.23779276 0.10228009 -0.8322315
-0.39995798 -0.2551139 -0.34685138 -0.3824838 0.31735814 0.08011941 -0.034619857 0.1374877
0.13837963 0.113313906 -0.17476404 0.26195884 0.34258407 0.007944793 0.5305153 0.38329247
0.20366499 0.18948615 0.12698813 0.30858794 0.13956292 0.4083455 0.020698408 -0.0840375
-0.8526337 0.7689335 -0.24945346 0.12792103 0.10174414 -0.19947124 -0.007606299 -0.07350684
0.26612574 -0.14073075 -0.02744663 0.13397186 0.008734643 0.1886304 0.028982578 0.072068974
0.20335612 0.24117355 0.15761364 0.23002633 -0.06624769 -0.1731327 -0.10635985 -0.1408363
-0.016061502 0.072963946 0.48532143 0.3963717 -0.037127115 0.47237137 -0.23298103 0.6642152

dense1.bias f4 [50]
00000000: 14b2 b2be 7b19 4e3b 5819 793e 44b6 2ebe
00000010: 7027 ce3e 39e8 61be 6bd9 d13d 73dc 87bd
00000020: 0e92 2fbe 4c0e 8b3e ac68 d7bd 365f 873e
00000030: 2c66 3c3e 7a3c 1b3e d3a4 a13d 75d1 bbbe
00000040: b061 8fbe 9f84 16be f2fd 38bd 5162 7b3e
00000050: ff2e 28be e0a3 933e 0d70 ea3d 1b8f f2bd
00000060: f521 913e 34c2 0fbc 18f4 ef3e c326 b53c
00000070: bdb4 27be 9438 473e db88 c9be bdb1 56bd
00000080: 5385 8cbe 6649 823e 8e50 8b3e 14f8 c0be
00000090: c0e5 5c3e cc96 57bc e607 093e 952d bc3e
000000a0: 8a1a a63e 041a 30bd 76f6 ad3d bc24 fb3d
000000b0: 7c67 1bbb e7b6 913c 10e7 193e 0064 793e
000000c0: 30a1 8ebe ddb5 abbe
-0.34901488 0.0031448293 0.24326074 -0.17061716 0.40264463 -0.22061242 0.10246547 -0.06633844
-0.17145559 0.27159345 -0.105180115 0.26439828 0.1839835 0.15159789 0.07892766 -0.3668324
-0.28004217 -0.14699028 -0.045164056 0.24549223 -0.16424178 0.28835964 0.11447153 -0.118437015
0.2834622 -0.008774329 0.46865916 0.02211321 -0.1637754 0.19455177 -0.39362225 -0.0524156
-0.27445468 0.25446624 0.27209896 -0.3768927 0.21572018 -0.013158511 0.1338192 0.36753526
0.32442123 -0.04299356 0.08494274 0.12262866 -0.0023712805 0.01778741 0.1502955 0.24354553
-0.2785735 -0.33537188

dense2.weight f4 [40, 50]
00000000: 01ac ae3e b432 5d3e e67e 8cbe b3d1 de3e
00000010: 20ba 2d3e d48a 763e 1b07 5f3e 2c58 ca3e
00000020: 4a5a 713e b7c8 293e 4771 08bf aad7 483d
00000030: f9bb fe3d 9ee0 cbbd acfd 1f3d 132a 37bd
00000040: ecf9 423e 78dd 133e 0a26 87be 01f8 fabd
00000050: 0253 32be d7dc 6a3e fbe2 4dbd 6bcc 943e
00000060: 74c0 8d3d f330 6e3e 8bba ec3c 07f5 04be
00000070: 85db bbbe b39f db3e b6bb 983d 9377 c83c
00000080: cbb0 683e e84f f0bd 61a1 313c 15b1 f33d
00000090: 59c5 983e 2cad 0dbf 486c 97bd db38 5abe
000000a0: 66a5 94be 4f90 9f3d 7be5 7fbe 9314 b03e
000000b0: 0f5c 2dbd 3d9c dfbd 8f72 ab3e 1ea5 29be
000000c0: 2948 7dbe 14be eebd 93df 9b3e cc79 dc3e
000000d0: 3adb a4be 80fe 06bf 192b 073e 2983 473e
000000e0: c033 c0bd 9bd7 e63d 3455 933d 8c64 01bd
000000f0: ae89 1f3e 0d29 0c3e 8a98 9d3e 66fd a0bc
00000100: 49c9 0b3d 83c5 93be 226b d0bc 58d7 39bd
00000110: 6ac4 9ebe 43e4 a13d c250 2abe 9caa 693e
00000120: 4b35 dc3c 0f85 df3c c928 d53e 8a7d fd3e
00000130: 9c2c 18bf d946 3b3d 440f e53e 22fb db3d
00000140: 5194 463e a5a2 a43d 6fe3 30bf 33aa 783d
00000150: 37fb 393e db55 f93c 06c9 d23d 1638 ecbe
00000160: 621c 4bbc 104b b3be 01dd 4cbe b9d9 0abe
00000170: fd91 163e f9f2 d6bd 999f babd e2d4 b6be
00000180: 8a37 4cbe cfe2 7f3e 9b65 4a3e 7f53 60bc
00000190: 5755 5fbe df41 a03e a17e 79bf 95fb b83d
000001a0: d4aa ecbe cffd 163d 1df9 7f3e cd81 f4bc
000001b0: a437 123e b6cc 33bf e9b5 d23e 13ca b53e
000001c0: 07e1 353e f18c 883e accd 4dbe 9531 d43e
000001d0: 8d6d b13e 32c9 abbe c63d 613e 361c c9be
000001e0: fc18 223e 0260 4cbe 88ef c1ba b80d 70bd
000001f0: 6b02 233d 4c87 0f3e 39e1 2bbe 3fd5 e7bd
00000200: 63aa 073f 2146 973d 6447 8fbe 69be 863e
00000210: 3982 24be d3a8 b53e 864f b2bc ebc0 6bbe
00000220: 5178 8f3e 16c6 30be 465a efbd 5ecf 8dbc
00000230: 6af3 553d d9a3 f7bb 69e0 503e 8366 65bc
00000240: 47d2 0b3d 455b febd 4533 733d 2e9d d9be
00000250: 22e3 da3d 9b75 8abe a4c1 2f3f 7e34 d8bc
00000260: 062e 363f ad77 40bf f78c 89bd f0be 983d
00000270: 8867 b13d 482d 1c3e d8d4 523e 9a47 3abe
00000280: 5376 1f3e 5cf2 b83e 28bc 1a3c 239b 84bc
00000290: 2728 82bd 84ab c6bc bca5 8f3e 991d 14be
000002a0: 39f2 fd3d b251 c73e 8d85 073e 1d03 fd3c
000002b0: d149 b6be 8536 02bd 29c1 063f 2e80 2cbf
000002c0: 7816 013d 47d2 f2bd 538c 673e 4c67 1dbd
000002d0: fb65 3abf 4c3f cfbe ea8e 44be 1a5a 9c3e
000002e0: ed0f 66be 4a06 c53e ba92 4abe 0a4f 9ebe
000002f0: 2354 3d3d 6847 6dbf 1c94 65be 33c0 a23b
00000300: ff61 a03e 6af4 09be 50f9 9b3d 4705 8bbe
00000310: 4f3e 343c 6c7f 23bd bb2f 543e 17c7 903e
00000320: 5267 65be f836 eabe 7610 363f 2acc 2cbf
00000330: 8b84 e23d c46a a5be 9451 aebe b35d 51bd
00000340: 051f c23e 690f 31be 9c26 8e3e ec7d a03e
00000350: e9a3 9e3c 1cc2 d23e 13ba d83e ffc6 6c3e
00000360: a03a 5bbd 2269 13bd fa8f 3ebe 226b 47bc
00000370: 621b efbc 5d9a 1c3d c3b7 cdbd 6c66 89be
00000380: deb7 f5bc d3f4 cf3a cb60 67be cd64 613e
00000390: 0acc a93e 0bc8 8bbd ebeb 60be e9af 3abf
000003a0: f6bb 91be 1831 f03e 694d b53d f154 0cbc
000003b0: 9012 ea3e c39d 9a3e e26b d53e 64ad 3bbe
000003c0: dfd8 483f 354a 8a3d 12b5 733e d900 41be
000003d0: 0725 efbd a486 babe b6e8 e23e 4b28 903e
000003e0: 6f5d 68bd 5a00 213d 0601 b23d 0e91 aabe
000003f0: 2baa c3be a6c3 0b3f a5af f53d 0bc7 41bc
0.34115604 0.21601373 -0.27440566 0.43519363 0.16965532 0.24076396 0.21780054 0.39520395
0.23569599 0.16580473 -0.5329785 0.0490338 0.12438197 -0.09954952 0.03906028 -0.04471786
0.1904065 0.14439952 -0.2639621 -0.12254334 -0.17414477 0.22935806 -0.050265294 0.2906221
0.06921473 0.2326086 0.028897544 -0.12984096 -0.36690918 0.42895278 0.07457678 0.02447108
0.22723691 -0.11733991 0.010841698 0.1189901 0.29838064 -0.55342364 -0.073937 -0.21310751
-0.2903244 0.077911966 -0.24989884 0.34390697 -0.042324122 -0.10918472 0.3348584 -0.16566893
-0.24734558 -0.11657348 0.3044401 0.43061674 -0.32198507 -0.52732086 0.13200034 0.19483627
-0.093848705 0.11271592 0.071939856 -0.03159003 0.15579864 0.13687535 0.3078044 -0.01965208
0.034127507 -0.28861627 -0.02544171 -0.045371383 -0.31009227 0.079048656 -0.16632369 0.22818989
0.02688088 0.027285127 0.4163268 0.4950984 -0.5944307 0.045721862 0.4473821 0.10741259
0.19392516 0.080388345 -0.69097036 0.06070919 0.18162237 0.030436447 0.102922484 -0.4613654
-0.012396904 -0.35018206 -0.20006181 -0.13559617 0.14704128 -0.10495562 -0.09112472 -0.35709292
-0.19943061 0.24988864 0.19765322 -0.013691782 -0.21809898 0.31300256 -0.97458845 0.090323605
-0.46224082 0.036863144 0.24997373 -0.02984705 0.14279038 -0.7023424 0.4115441 0.35505733
0.17761622 0.2667003 -0.20097989 0.41444078 0.34653893 -0.33551937 0.21996221 -0.39279336
0.15829843 -0.19958499 -0.0014796117 -0.058606833 0.039797228 0.14016455 -0.16785134 -0.1131997
0.52994365 0.07386423 -0.27984154 0.26317146 -0.16065301 0.35480365 -0.021766435 -0.23022811
0.28021482 -0.17263064 -0.1168714 -0.017310794 0.05223409 -0.007557374 0.20398106 -0.0140014915
0.034136083 -0.12419752 0.059375066 -0.4250273 0.106878534 -0.2704285 0.6865485 -0.026392218
0.71163976 -0.7518261 -0.0671634 0.074582934 0.08662325 0.15251648 0.20589006 -0.18191376
0.15572481 0.36122406 0.009444274 -0.016187256 -0.06355315 -0.024251707 0.28056133 -0.14464416
0.12399716 0.38929516 0.1323454 0.030885274 -0.35603192 -0.031790275 0.5263849 -0.67383087
0.03151557 -0.118565135 0.22612123 -0.03842859 -0.7281186 -0.4047798 -0.19195142 0.30537492
-0.22467013 0.3848136 -0.19782534 -0.30919677 0.046222817 -0.9268708 -0.2241978 0.0049667596
0.31324765 -0.13472143 0.07615912 -0.27152464 0.011001184 -0.03991644 0.20721333 0.28276893
-0.22402695 -0.45745063 0.7111887 -0.6749903 0.11060437 -0.32308018 -0.34046614 -0.05111475
0.3791429 -0.17291035 0.27763832 0.3134607 0.019365268 0.4116372 0.42329463 0.23122786
-0.053522706 -0.035988934 -0.1860961 -0.012171539 -0.029187862 0.03823315 -0.100448154 -0.26835954
-0.029994901 0.001586581 -0.22595517 0.22011109 0.33163482 -0.068252645 -0.21964996 -0.7292467
-0.28463715 0.46912456 0.088526554 -0.0085651735 0.45717287 0.30198488 0.4168387 -0.18327862
0.7845592 0.06752435 0.23799542 -0.1884798 -0.11676984 -0.36430848 0.4431817 0.2815574
-0.05672973 0.039306976 0.086916015 -0.33313793 -0.38215765 0.5459541 0.11996392 -0.011827241

dense2.bias f4 [40]
00000000: d0a1 913e 5211 61bd fe95 1f3e 6b99 a5be
00000010: 8fe9 123e 041f e2bd d0b7 153f ce4f 683e
00000020: 9b03 8cbd a3bd 4ebe 8209 74be 3155 eabd
00000030: fd48 033e eab4 a03e 7dc9 1c3c 2a28 073f
00000040: eeb7 21be 82e6 7a3e 3b91 543e 6dd5 903e
00000050: 3a7b 29be ea45 753e 35e3 923d eff9 d23c
00000060: 954d 52be 6ea9 73be 9dda 193e e6f6 003f
00000070: d5a6 1a3e 2d97 5f3e e88b ef3d ef96 bbbd
00000080: b66f 66bd 3021 543e ad60 93bd 7668 893e
00000090: 356b 303e bea7 1abd b64e 5b3e cb6d efbd
0.28443766 -0.05494816 0.15584561 -0.3234361 0.14346908 -0.11041072 0.584836 0.22686693
-0.06836625 -0.20189528 -0.23831752 -0.1144203 0.12820812 0.31388026 0.009569523 0.5279566
-0.1579282 0.24501994 0.20758526 0.2828783 -0.16550913 0.23952451 0.071722426 0.025753943
-0.20537408 -0.23795101 0.150248 0.5037674 0.15102704 0.21835013 0.11696607 -0.09159648
-0.05625888 0.20715785 -0.07196174 0.2683751 0.17228396 -0.037757628 0.21416745 -0.11690863

dense3.weight f4 [30, 40]
00000000: ebca 293e 4755 c23e 121f d73e debc db3e
00000010: 5a8e 78be 2990 a3be 40c2 7a3e 084b 213f
00000020: d451 10bd bf4d 9cbd 64be d03e bb03 debe
00000030: 8282 94be cc83 15be 0203 81bd 27ff 9ebd
00000040: 53a2 b23d 00b7 dcbd f94f 44bf f2a8 cabd
00000050: 7c41 a2bd 277e 8e3e d0ef 02be 760c 263e
00000060: 7fac 223e e4db 4abe 2362 6bbd 590a 2ebe
00000070: f57d 1c3e 0412 36bd 6d5a d03e 36ff 65be
00000080: 95eb 5c3f 2eea ba3e 8745 073e 63e3 1f3e
00000090: 7f7f 513e 5ff0 a6bd 26c3 a43d b83b a3bd
000000a0: 3262 b93e 9d80 be3e 6c1c e1bd bb0b 053e
000000b0: 3160 24bf 7903 e43c 29ce a03e c78a e4bd
000000c0: 5be7 043f f3db b73d 9e82 ffbd 3273 21bf
000000d0: 591c 95bd 5789 e9be 275e b2bd 0a70 ef3d
000000e0: 7736 133e 4190 90bd 1eeb 3e3d 84fe dd3e
000000f0: 6498 fe3d cb1d e93d b95d b73e 8a34 b63d
00000100: 755d 613e b040 41be 77bb 99bd 83fc 2ebd
00000110: 604f 45be 9915 693e 8175 83be 4af0 72be
00000120: 2f82 463e 86b4 ce3e fcad 903d d4a0 f7be
00000130: 01df c8bd f38e 2abe 49a1 de3e 8fdf bf3e
00000140: 9935 093e b2b5 8e3e 4a3a 1bbf 7ea1 07bf
00000150: 8785 883e 2b0d 1fbd e5b9 8dbc a189 d33e
00000160: 3c26 a23e 6a1e 25bf 0d9b 1c3f 352c 73bf
00000170: 377d c5bd 67f7 f9b9 2464 213d 1dff e4be
00000180: d27f d33d b55c df3e 8403 153f 0786 95be
00000190: 8cbf c8be 90fb 9cbc 2c82 c9be 5bbb 0bbf
000001a0: 272d b8bd 6a32 123e b67d 763e ef2c 8d3e
000001b0: 8aee 0cbf e20a b43e fada 473d 8ba1 143e
000001c0: 4dfe 2f3d d16f 833e 0a54 0e3e 58fe ff3e
000001d0: 4fba f0be 6c9b f63d dfa3 1abe 728d 55bd
000001e0: 6d13 883d e7ad b1bd ffb3 d03e fefa 283b
000001f0: f522 e73d 916c 193d 3da0 9a3e 3d32 17be
00000200: 282a 89be f10e 313e b499 babe 4aae 9b3d
00000210: 68cd 713e 4884 d53e a14f d83d 78b7 ae3e
00000220: 3453 cdbe 7738 ac3d 83c7 22bf 7049 6f3d
00000230: 6895 693d 38e9 d53e 99b6 ba3b 7c6a e33d
00000240: 7559 1cbe cddf 8c3e 6bc9 03be da18 c3be
00000250: 8912 b73e de7a a8bc 7dc8 c53e f365 cebc
00000260: 297f 57bf c4b7 99bd 7e40 14bc 8a7e 27be
00000270: f640 873e aab8 573e ffcb 3e3e 207e 3bbe
00000280: 447b d7bd 720b 17be 1a81 ce3d 28b9 ee3e
00000290: 9106 7e3d 2d24 34be 2706 573e 41d2 15bf
000002a0: 36c1 5bbd 1344 9bbd 5feb 1b3f f502 b1be
000002b0: a5a9 7e3e 36ac c23c 5d4e 013f bf92 e1bc
000002c0: a627 50be 1b8e e93d c005 0ebf 0912 babe
000002d0: f409 d63d c9af 02be c849 89bc 4871 39be
000002e0: e2eb b83e a492 be3e c6bb 023e 2e73 efbd
000002f0: 35a1 153a 7e32 3f3e 02df e23e c945 5a3e
00000300: 982e c73d 4b50 d23e 25e4 99bd 5c22 59be
00000310: 1970 003d 404c 3fbd 83c6 60bd 146a bbbe
00000320: ec47 fd3d 68cd 6e3e 4673 3fbd 023a 873e
00000330: e46d ee3d 4108 bf3e 8013 2b3e 7654 4c3f
00000340: 2237 023c 2f30 0bbd 9446 263e bd45 00bf
00000350: 0809 5bbe 6a2d f73e 9b7b 3d3c c7bf 523f
00000360: 45cc 053e 622a 6f3e 0a55 8bbe 8828 283f
00000370: 42a6 f0bd f1ee 6a3e e2bf f13d 05f8 b73e
00000380: eed8 cebe de22 dc3b 8222 dcbd 3761 73be
00000390: b6e4 8b3d 2b36 f63c 02b4 05be e1b2 1fbf
000003a0: d87a 98be ae8f 0fbc 8a8d 0dbe 94d5 86bd
000003b0: 9edf fdbd b9be 283e 2313 273e fc0c 8cbe
000003c0: a671 e7be 39a9 76be 5890 36be db51 533f
000003d0: a0b6 4cbd 78eb 5ebf 0c27 f8bc 3aa4 a33e
000003e0: 142f 5fbd 511c 053f b09d 06be 9292 d43e
000003f0: 941a 01bf 265e 99be f13c f63c 4f11 b03d
0.16581313 0.37955686 0.42015892 0.42917532 -0.24273053 -0.31945923 0.24488163 0.63005114
-0.035234287 -0.076320164 0.40770257 -0.4336222 -0.2900582 -0.14601058 -0.06299402 -0.0776351
0.08722367 -0.10777092 -0.7668453 -0.09895505 -0.079226464 0.27830622 -0.12786794 0.16215691
0.15886115 -0.19810444 -0.057466637 -0.16996135 0.15282424 -0.044450775 0.4069399 -0.22460636
0.8629697 0.3650679 0.13210116 0.15614085 0.20458792 -0.08151316 0.08045034 -0.07970375
0.3620773 0.372075 -0.10991749 0.12992756 -0.64209276 0.027833687 0.31407288 -0.11159282
0.5191552 0.08977499 -0.12476085 -0.630664 -0.072807975 -0.45612594 -0.087093644 0.11691292
0.14376245 -0.07058764 0.046610944 0.43358243 0.1243141 0.11382636 0.35813692 0.0889674
0.22008307 -0.18872333 -0.07506459 -0.042721283 -0.1926856 0.22762145 -0.25675586 -0.23724476
0.19385599 0.40372103 0.07064435 -0.4836489 -0.098081596 -0.16656093 0.43482426 0.3747525
0.13399352 0.27872998 -0.6063582 -0.5298079 0.26664373 -0.038830917 -0.017300555 0.4131594
0.31669796 -0.64499533 0.6117409 -0.9498933 -0.096430235 -0.0004767731 0.039402142 -0.44725886
0.10327114 0.43625417 0.5820849 -0.29203817 -0.3920864 -0.019162923 -0.39357126 -0.54582757
-0.08992987 0.14277044 0.24071392 0.27573344 -0.5505148 0.35164553 0.048792817 0.14514749
0.04296713 0.25671247 0.13899246 0.49998736 -0.47017142 0.12041363 -0.15101574 -0.052136846
0.0664433 -0.08675747 0.40762326 0.0025784369 0.112859644 0.037457053 0.30200377 -0.14765258
-0.26789975 0.17290856 -0.3644539 0.076016024 0.23613513 0.41702485 0.10562063 0.3412435
-0.4010254 0.08409207 -0.6358568 0.058419645 0.05702725 0.41779494 0.005698037 0.11104295
-0.152685 0.27514496 -0.12869804 -0.38104898 0.3575633 -0.0205664 0.38629523 -0.025195098
-0.84178406 -0.07505754 -0.009048579 -0.16356865 0.2641675 0.21066537 0.18632506 -0.18309832
-0.10521558 -0.1475046 0.10083218 0.46625638 0.06201798 -0.17591925 0.2099844 -0.58523947
-0.053651057 -0.075813435 0.6090602 -0.3457257 0.24869402 0.023763757 0.505102 -0.027535794
-0.20327625 0.114040576 -0.55477524 -0.36341885 0.10451117 -0.12762369 -0.016758814 -0.1810962
0.36117464 0.37221253 0.12766942 -0.11691891 0.00057079206 0.18671605 0.44310766 0.21315683
0.09725684 0.41076884 -0.07514218 -0.21204513 0.031356905 -0.046703577 -0.054876816 -0.3660437
0.12367234 0.23320544 -0.046740793 0.26411444 0.11642054 0.37310985 0.16706657 0.7981638
0.007947715 -0.0339815 0.16237861 -0.5010641 -0.21390164 0.48276836 0.011565114 0.8232388
0.13066204 0.23356012 -0.27213317 0.65686846 -0.11750461 0.22942711 0.11804177 0.3593141
-0.4039988 0.0067180237 -0.10748769 -0.23767553 0.068307325 0.030055126 -0.13056949 -0.6238232
-0.29781222 -0.008762283 -0.13823524 -0.065837055 -0.12396167 0.16479005 0.16315894 -0.27353656
-0.45203894 -0.24087991 -0.178285 0.82546777 -0.049978852 -0.87078047 -0.030292057 0.31961232
-0.054488257 0.5199633 -0.1314609 0.41518074 -0.5043118 -0.29954642 0.030058356 0.08597051

dense3.bias f4 [30]
00000000: 4d11 763e a551 3d3c a613 893e 8ff9 b73e
00000010: 7f34 22bd 859a 933e 87a6 ddbd ad21 2a3e
00000020: 9e3d 19be 0d2c 88bc 9107 bd3e 47ad c4bd
00000030: 49a3 a5bd dbcf af3e 5902 7b3d e92d b23d
00000040: c4bd 14bd 654a c33d 3f6d 523e acf9 a73e
00000050: cbc3 32be 1eec ed3d a3f8 943e 0034 093d
00000060: 880d 03bd b5cc ca3d 7d12 ba3e 2967 81bd
00000070: 635c 483a 3896 633e
0.24030037 0.01155511 0.26772803 0.35932586 -0.039600845 0.28828827 -0.10822778 0.16614409
-0.14964911 -0.016622568 0.36919835 -0.096033625 -0.08087785 0.3433827 0.061281536 0.08700163
-0.036313787 0.09535674 0.20549487 0.32807672 -0.17457502 0.116173014 0.29095945 0.033496857
-0.031995326 0.09902326 0.3634223 -0.06318504 0.0007643161 0.22225273

dense4.weight f4 [10, 30]
00000000: cf63 01be 3bcb f8be 8a09 283f 721e 083e
00000010: 486e 573e 38fa 8bbd f549 313d 809b 813e
00000020: 52fd 09bd 3fd0 f6be b028 a8be b27a b1bd
00000030: 24ca 5abe 5d92 a7be f87d ec3e 8d57 6b3d
00000040: 29fe 023d d355 553f 0955 b3be cc17 713e
00000050: 5d42 1cbc 206e a0be 2138 64be 9219 a63b
00000060: 76a8 2bbd fbb2 fa3d 0010 f23d 1ba9 c6be
00000070: 28e7 c43e 9670 0abf 5f56 e93c e6b1 f33d
00000080: c5c7 dabe ae77 343d 147a 07bf 81a9 83be
00000090: 066f e83e 0c54 7dbe 6b87 f6be c742 8d3d
000000a0: 3915 22bf 3ef3 203d 1a1f 71bf 0b01 6d3d
000000b0: 72a5 b53e 531c 01bf 43b0 e53d 91cc ac3e
000000c0: 97d8 713e 8676 4e3e dd0e 1abe a353 b7bc
000000d0: e476 293f 1b34 c13e 81d1 e13c 5ccd 46bf
000000e0: 0244 c9be 5d16 313e 6ed7 05bf 3ef2 0dbe
000000f0: 7f8d b23e 78cd df3d 43de f63d 4556 4ebe
00000100: 266b 2f3e 347a 1dbd d3a9 e23e a6ff 92be
00000110: 26ed ca3e bcf9 00bf 6744 83be c233 21be
00000120: 5d0c 813e bca4 b5bc cb65 4cbe 2909 213e
00000130: 7699 b3be 59d5 e2be 2fbb a9be 5bde 2f3e
00000140: 4daa b63c 0962 3f3e c021 06be d855 acbe
00000150: 2a6e 073d baae 15bf 5954 68be 740f 5d3e
00000160: e2e2 a03e 8050 24be d561 7d3d 9b91 c63b
00000170: 805e 6abf 1b94 9cbd 803e 513e d295 01bf
00000180: f40a 4bbf 707b 8cbd 2bfd c63e 8c73 003f
00000190: cfa3 d73c 0954 a1bd e9ed 673c 5842 c53d
000001a0: 92a8 9d3e e4a3 a43e b3fb acbe ae10 1abf
000001b0: 5ed6 febd 2508 dc3c 0a4e cc3d 8284 97bc
000001c0: 1c0f 84be e760 9d3a 8f79 7cbd 016d 033e
000001d0: 098e 8dbf 0088 b03d 2dd8 63be 9b13 cfbe
000001e0: c88f 52bf b5ee e1be 9005 4fbd 7518 273e
000001f0: 2f7a fc3d a781 fdbe f2a0 193e d464 75bf
00000200: 7393 7cbe e555 86bc 591c f1bb 1e64 b23d
00000210: 1db0 6d3e 3a2a 55be f259 ddbe b03c 51bf
00000220: 9ab7 b43e cb0a 97bf ca5d 283e 85fb 7d3d
00000230: 2ee5 033e d5da d83e 050e 8a3d eea1 2c3e
00000240: 2eff f7bd 993e c3bc c492 bf3e 2a4c dcbe
00000250: 2b7c 9c3e c750 283e 5648 a4be 29e9 933e
00000260: 1059 06bf 026f 313d 6e90 9abd 7c05 643e
00000270: 44d9 05be ca72 9b3e ea7d c33d 3d80 47bc
00000280: 16ae 8f3e 7c00 ddbd 44fe 95be 24be 9c3e
00000290: c7f7 02bf 65fa ab3e 1d46 edbe 7353 b13d
000002a0: 6ba2 a0bd a0cc 48be 8dba cbbd 7fd0 f6bd
000002b0: b1d1 c93e ce01 6fbf 98c1 98bd 1294 c43b
000002c0: 0095 923e a10d fabb d412 cabe 1c41 e6bd
000002d0: 5e18 e7bd f5df f6be 6d26 23bd c042 853e
000002e0: 92f4 47bf 8a34 ef3e 6170 9fbe f77e 053e
000002f0: 5cc1 38bf d9a1 8cbf 3b86 05bf fe7f 34be
00000300: 7df5 ba3e 0794 733e 56df 04be fe4b d4bd
00000310: 7816 393c c6ae 12be 12f5 44bf b05a 1a3e
00000320: c62a 653d f240 783e 2455 0b3e 2644 1dbf
00000330: 0c3e 913d f707 023f 4d5a 9abd 351a da3d
00000340: ba87 7fbe 44ac 6fbd bdf4 27bd 80aa f8bd
00000350: 97b1 c43d 75ad 3ebf dfd2 28bc 089b 5c3e
00000360: 0735 0c3f b3d1 a93c b0db f73d 41f5 cc3e
00000370: 591c 41bf e93f 6ebd 0a82 723e 1bd8 48bf
00000380: 2ad8 ca3e 72d3 c8be bf8a 883e 49e7 9abf
00000390: 8b58 e9bd 88d6 49bf 230a ea3d fb46 b9be
000003a0: 7b3e f7be 17ba 553d 7bb7 7ebd 67b3 e5be
000003b0: edcb 163f 9f83 e83e ddef 55be 38d4 993e
000003c0: 459a b33e 4bb8 a63e 0f8c b9be b795 383e
000003d0: a6a4 7f3e aff7 1b3e b490 59bf f1b6 84bc
000003e0: 71d4 87be 508a f1be b89a 023f c267 0d3d
000003f0: b952 e6bd 6491 29bd 5bd7 663d 2aa9 a13d
-0.1263573 -0.48592553 0.65639555 0.13292864 0.21038163 -0.06834835 0.04328342 0.2531395
-0.03368885 -0.48205754 -0.32843542 -0.086659804 -0.21366173 -0.32728854 0.46189857 0.05745654
0.031980667 0.8333408 -0.35025814 0.23544234 -0.009537307 -0.3133402 -0.22287036 0.005068966
-0.041908704 0.12241169 0.11819458 -0.38800892 0.38457608 -0.5407804 0.028483568 0.11899166
-0.42730537 0.044059448 -0.5292065 -0.2571526 0.45397204 -0.24739093 -0.4815019 0.068975024
-0.63313633 0.039294474 -0.9418808 0.057862323 0.35477787 -0.50433844 0.1121526 0.33749822
0.23617779 0.201624 -0.15044732 -0.022378748 0.6619704 0.37735066 0.02756572 -0.77657104
-0.39309698 0.17293687 -0.52281845 -0.1386194 0.34873578 0.10927862 0.12054112 -0.20150097
0.17130718 -0.03844662 0.4427019 -0.2871067 0.39634055 -0.50381064 -0.25638124 -0.157424
0.25204745 -0.022173278 -0.19960706 0.1572615 -0.3507802 -0.44303396 -0.33150622 0.17174666
0.022298003 0.18689741 -0.13098812 -0.33659244 0.033064045 -0.58469737 -0.22688426 0.21587926
0.31423098 -0.16046333 0.061860878 0.006059838 -0.91550446 -0.076454364 0.20433998 -0.5061923
-0.7931359 -0.06859481 0.38865027 0.5017631 0.026323227 -0.078773566 0.014155843 0.09631795
0.3079267 0.3215629 -0.3378578 -0.601817 -0.12443231 0.026859352 0.09975822 -0.018495802
-0.25792778 0.0012007029 -0.061639365 0.1283455 -1.1058971 0.0861969 -0.22250433 -0.40444645
-0.8225064 -0.44127432 -0.050542414 0.16317923 0.12327992 -0.4951298 0.15002802 -0.95856977
-0.24665622 -0.01639838 -0.0073581156 0.08710502 0.23211713 -0.2081689 -0.43232685 -0.81733227
0.35296327 -1.1800169 0.16442028 0.062007446 0.12880394 0.42354456 0.06740955 0.16858646
-0.121092185 -0.02383356 0.3741666 -0.4302686 0.30563483 0.16437064 -0.32086438 0.28888825
-0.5247965 0.043318756 -0.07547079 0.22267717 -0.13071162 0.30361015 0.095455006 -0.0121765705
0.28062505 -0.10791108 -0.29295552 0.30613816 -0.5115933 0.33589473 -0.46342555 0.08658495
-0.07843479 -0.19609308 -0.09947691 -0.12051486 0.39417794 -0.9336213 -0.074588 0.0059990967
0.28629303 -0.007631019 -0.3946749 -0.112428874 -0.112839445 -0.4821774 -0.039831568 0.2602749
-0.7810756 0.46719772 -0.31140426 0.13036714 -0.72170043 -1.0986892 -0.52157944 -0.1762695
0.36515418 0.23786937 -0.12975821 -0.10366057 0.011296861 -0.14324483 -0.7693645 0.15073657
0.055948995 0.24243525 0.13606697 -0.6143211 0.070919126 0.50793403 -0.07536755 0.1064953
-0.2495412 -0.058513895 -0.041004885 -0.12141895 0.09604185 -0.74483424 -0.010304182 0.21543515
0.54768413 0.020729875 0.12102449 0.40030864 -0.7543388 -0.05816642 0.23682418 -0.7845475
0.39618045 -0.3922382 0.26668355 -1.2101833 -0.11393841 -0.78842974 0.11427715 -0.36186966
-0.48289856 0.052179422 -0.0621867 -0.44863436 0.58904916 0.4541292 -0.20892282 0.30044723
0.35078636 0.3256248 -0.3623967 0.18025862 0.24965152 0.15231203 -0.84986424 -0.016200515
-0.26529267 -0.47175837 0.5101733 0.03452278 -0.11246247 -0.04139842 0.056357723 0.078935936

dense4.bias f4 [10]
00000000: c26f 05be ae47 0c3e 1da1 d83d 9923 aabd
00000010: a7b2 14be df74 8c3e 8645 fcbd c429 90be
00000020: 2d2f 54be 7fa9 aebb
-0.13030913 0.13699219 0.10577605 -0.08307571 -0.14521275 0.27432916 -0.12317948 -0.28156865
-0.20721121 -0.005330264
