models_weight/SNet/SNet_model_A_mnist_Adam.pt (torch, 174245 bytes, 8 tensors)

dense1.weight f4 [50, 784]
0.013891877 -0.015347899 -0.009637599 -0.013531787 -0.003914331 0.024213472 0.019041283 0.023850298
-0.025625192 -0.025822582 -0.004397831 -0.03067634 -0.020844458 -0.053821404 -0.03006389 -0.04635187
-0.023119353 -0.007886729 0.014348324 0.008409773 -0.025050918 0.018508166 -0.023941986 0.021850886
0.0025290549 0.00020698566 0.015008472 0.009753313 0.023380928 -0.013803581 0.016737351 -0.018950293
-0.038587138 -0.06397907 -0.116244785 -0.07582572 0.06293042 0.14802697 -0.011932999 -0.075463384
-0.092925295 -0.14031044 0.086888485 -0.21720316 -0.2743538 -0.21354449 -0.123849034 -0.12486033
-0.13722935 -0.082667075 -0.17945957 -0.19564955 0.034942817 -0.026526159 -0.00352034 0.018319016
0.028671674 -0.0068428265 -0.04739233 -0.15573256 -0.20304674 -0.024318198 0.049433906 -0.21426022
-0.2630719 -0.11097862 0.30225876 0.47912067 0.19904187 0.08945698 0.008756349 -0.21407852
-0.29352647 -0.31693557 -0.6246955 -0.14077456 0.278722 0.21631318 0.0812463 -0.14737724
0.1371271 -0.032849457 0.00028873768 0.006769002 0.031030124 -0.002702794 0.22118515 0.023524215
-0.24820739 -0.3107633 -0.4309663 -0.40966636 -0.5487177 0.07913505 0.571647 0.45366082
-0.17840394 -1.1059753 -1.1487024 -0.6495823 -0.76011795 -0.6584269 -0.4213421 0.32511938
-0.01774314 -0.22699557 0.18049017 0.21621895 0.23236609 0.13554752 0.07897413 -0.014818648
-0.010391708 0.021315213 0.24922305 0.1116776 0.05187694 0.18598202 0.124450706 0.25156182
0.16516112 -0.23582654 -0.2875183 -0.25454065 -0.17747349 -0.62504756 -0.6037393 -0.24189559
-0.027336258 0.016602267 -0.020086115 0.23742706 -0.062204715 0.17333893 0.26994976 0.17831174
-0.16241017 -0.8775767 -0.75140476 -0.6078993 -0.01098655 -0.023272367 0.33731136 0.45337474
-0.21024382 0.54702306 0.3740803 -0.019327715 0.20425794 0.40056446 0.32367292 -0.14160155
-0.23670472 -0.6785698 -0.36572966 0.066647016 0.024827866 0.01996421 -0.07555387 -0.20387614
-0.34587497 -0.11705062 0.17682198 0.1350481 0.5155385 0.050588906 -0.53140414 -0.38684103
0.015502658 -0.11932791 0.3021318 -0.18846461 -0.40851057 0.023572074 0.03856297 0.002557716
0.2715933 0.44102657 -0.024052901 -0.08904363 -0.43649846 -0.5522465 -0.19777706 -0.06801498
0.075095594 -0.021246368 -0.055941164 0.067604706 -0.0016977575 -0.038202956 0.23175628 0.052307293
-0.04873385 0.18261275 -0.103645094 0.15655397 0.0014014844 -0.04227295 0.1581827 -0.2569712
-0.25667018 -0.07921195 -0.23033825 -0.1481891 0.08937204 0.36955047 0.17681816 -0.34272772
-0.6330279 -0.61608666 -0.1436635 0.031811755 0.20150872 0.1753931 -0.045530193 0.24110633
0.15272427 0.069489434 0.14716923 0.3420405 0.004611693 -0.16468748 0.5337742 0.36195216
-0.64344543 -0.16976358 0.30907822 0.23330598 0.31417778 0.2516258 0.120498255 -0.0860216
0.045810413 0.30074188 0.095383845 -0.35423255 -0.9379798 -0.42771846 0.10739003 0.34622553
0.023820268 -0.0704259 -0.14110881 0.028421294 -0.1375542 -0.14779744 -0.25178644 0.07999952
0.17012271 0.1585689 0.13349181 -0.15214868 0.09079984 0.75582683 0.13276988 0.101178125
00000000: c19a 633c c175 7bbc 05e7 1dbc 6eb4 5dbc
00000010: ca43 80bb 555b c63c 77fc 9b3c b361 c33c
00000020: eceb d1bc e189 d3bc ae1b 90bb f34c fbbc
00000030: ffc1 aabc d573 5cbd 8c48 f6bc 75db 3dbd
00000040: cc64 bdbc 5737 01bc 3c15 6b3c 25c9 093c
00000050: 9537 cdbc 709e 973c fc21 c4bc a100 b33c
00000060: 80be 253b 4a0a 5939 18e6 753c 5ccc 1f3c
00000070: 5c89 bf3c 6a28 62bc c51c 893c a53d 9bbc
00000080: 8c0d 1ebd 7507 83bd bf11 eebd 844a 9bbd
00000090: aae1 803d 6294 173e a082 43bc 8c8c 9abd
000000a0: 9e4f bebd 8aad 0fbe 97f2 b13d 816a 5ebe
000000b0: 1a78 8cbe 68ab 5abe 90a4 fdbd c6b6 ffbd
000000c0: da85 0cbe 5b4d a9bd 40c4 37be 5b58 48be
000000d0: 3320 0f3d 634d d9bc 81b5 66bb c311 963c
000000e0: dce0 ea3c ca39 e0bb 761e 42bd 5b78 1fbe
000000f0: 7ceb 4fbe f536 c7bc 357b 4a3d 0867 5bbe
00000100: 5cb1 86be c248 e3bd a9c1 9a3e 4e4f f53e
00000110: a2d1 4b3e 3935 b73d ca76 0f3c 6637 5bbe
00000120: 1a49 96be 6145 a2be 0bec 1fbf 3527 10be
00000130: a6b4 8e3e 3481 5d3e 7664 a63d 0fea 16be
00000140: 0c6b 0c3e 278d 06bd b761 9739 81ce dd3b
00000150: e332 fe3c 5c21 31bb 5c7e 623e dbb5 c03c
00000160: 142a 7ebe 5e1c 9fbe 9da7 dcbe cabf d1be
00000170: c378 0cbf 8f11 a23d 7557 123f 3b46 e83e
00000180: 86af 36be 9990 8dbf ae08 93bf 074b 26bf
00000190: 1797 42bf aa8e 28bf 27ba d7be 0c76 a63e
000001a0: 105a 91bc 8771 68be 6ad2 383e 8068 5d3e
000001b0: 60f1 6d3e f8cc 0a3e 30bd a13d eac9 72bc
000001c0: fc41 2abc 3e9d ae3c 5434 7f3e 3ab7 e43d
000001d0: ea7c 543d 1272 3e3e 03e0 fe3d b6cc 803e
000001e0: ff1f 293e 837c 71be 9935 93be 2753 82be
000001f0: 9cbb 35be 1e03 20bf a98e 1abf 7ab3 77be
00000200: 4af0 dfbc 7a01 883c a38b a4bc 1420 733e
00000210: 5fca 7ebd c37f 313e db36 8a3e 5a97 363e
00000220: da4e 26be dea8 60bf 105c 40bf 4a9f 1bbf
00000230: ee00 34bc b1a5 bebc 13b4 ac3e bc20 e83e
00000240: 284a 57be b409 0c3f 7487 bf3e 2855 9ebc
00000250: fe28 513e c916 cd3e 75b8 a53e ffff 10be
00000260: b962 72be c0b6 2dbf eb40 bbbe 3b7e 883d
00000270: cf63 cb3c fc8b a33c fdbb 9abd e8c4 50be
00000280: 8616 b1be 3cb8 efbd d210 353e 0d4a 0a3e
00000290: 55fa 033f 5036 4f3d 1a0a 08bf 0710 c6be
000002a0: dcfe 7d3c 3162 f4bd 05b1 9a3e defc 40be
000002b0: 4c28 d1be 391a c13c 34f4 1d3d 5b9f 273b
000002c0: 470e 8b3e 3cce e13e 970a c5bc 825c b6bd
000002d0: ba7c dfbe 0760 0dbf 1286 4abe 704b 8bbd
000002e0: b8cb 993d dd0c aebc 9022 65bd 5674 8a3d
000002f0: 4a87 deba b47a 1cbd 8551 6d3e 2c40 563d
00000300: 259d 47bd d6fe 3a3e e143 d4bd af4f 203e
00000310: 03b2 b73a 6726 2dbd a5fa 213e bb91 83be
00000320: 466a 83be e039 a2bd cadd 6bbe e2be 17be
00000330: b008 b73d b835 bd3e d20f 353e 027a afbe
00000340: 1e0e 22bf dbb7 1dbf 861c 13be 0b4d 023d
00000350: 4d58 4e3e 409a 333e de7d 3abd 94e4 763e
00000360: c063 1c3e 7a50 8e3d 88b3 163e ef1f af3e
00000370: af1d 973b d6a3 28be 6da5 083f cb51 b93e
00000380: d7b8 24bf 81d6 2dbe 803f 9e3e c3e7 6e3e
00000390: e9db a03e 19d5 803e cac7 f63d 182c b0bd
000003a0: b3a3 3b3d d7fa 993e 9b58 c33d f85d b5be
000003b0: 721f 70bf eafd dabe 4eef db3d 7944 b13e
000003c0: b922 c33c 743b 90bd d47e 10be c6d3 e83c
000003d0: 02db 0cbe 3658 17be 27ea 80be cad6 a33d
000003e0: a634 2e3e e35f 223e 14b2 083e ddcc 1bbe
000003f0: 44f5 b93d de7d 413f d4f4 073e 7a36 cf3d

dense1.bias f4 [50]
0.46208236 -0.5104887 0.04508021 -0.039227396 -0.028922137 -0.07010932 0.20123182 -0.00055939937
-0.07036462 0.31967875 0.49816132 -0.08400905 -0.012102802 -0.03280995 0.40836886 -0.34438968
0.20745555 0.19020092 0.007859485 -0.13087328 -0.15298618 -0.1312986 0.23982996 0.017562475
-0.08987259 -0.08046061 0.26618996 -0.0060803285 -0.24566342 0.26482213 -0.11771729 0.247288
0.36200175 0.29089516 0.38093224 0.044778086 0.09969416 0.2725012 -0.35182077 0.17010148
-0.060611643 0.059269693 0.046967033 -0.23498787 0.06720515 0.12582088 0.24369581 0.5485239
0.1308286 -0.11538195
00000000: 0f96 ec3e 63af 02bf 07a6 383d e8ac 20bd
00000010: 1eee ecbc 7a95 8fbd b70f 4e3e a8a4 12ba
00000020: 531b 90bd efac a33e 000f ff3e f00c acbd
00000030: d54a 46bc ba63 06bd b915 d13e d853 b0be
00000040: 3a6f 543e 08c4 423e 12c5 003c a503 06be
00000050: 69a8 1cbe 2473 06be fc95 753e 2edf 8f3c
00000060: 1f0f b8bd 88c8 a4bd 0d4a 883e 7e3d c7bb
00000070: 318f 7bbe c496 873e c315 f1bd 1139 7d3e
00000080: 4b58 b93e 36f0 943e 8d09 c33e 3a69 373d
00000090: 742c cc3d 4785 8b3e da21 b4be 152f 2e3e
000000a0: ea43 78bd c7c4 723d 8160 403d a9a0 70be
000000b0: dba2 893d 30d7 003e 658b 793e 106c 0c3f
000000c0: eff7 053e 5f4d ecbd

dense2.weight f4 [40, 50]
-0.3884279 -0.3414881 0.083682895 0.09856154 0.17848125 -0.1138476 0.1918955 -0.036650978
0.39009434 0.4028723 0.14970808 -0.19142017 0.12191285 -0.09159266 -0.07586481 -0.53502345
0.022365404 0.21456304 0.071091 0.15411484 0.13757938 0.13817565 -0.12394485 -0.626292
0.24346812 -0.21487418 -0.5735371 0.17736638 -0.2399373 0.23339154 0.27440694 -0.06605657
0.34659088 0.3005215 -0.64349765 0.22296026 0.38554534 0.04456777 0.23843327 0.3976474
-0.20850118 0.17197098 -0.17625643 -0.1116169 0.048520923 -0.15556858 0.24039595 0.5227678
-0.37699586 -0.4289248 0.13059658 -0.36663303 0.376921 -0.18526551 -0.35048792 -0.0006074679
0.1056402 0.07864225 0.063349776 0.32571632 0.39050168 -0.0107527925 -0.13381898 0.080574654
-0.14766 0.04539991 0.12854852 0.027860342 -0.3100554 0.25831932 -0.11891925 -0.1624294
-0.021983454 0.022533564 -0.15247893 0.5585407 0.014852568 -0.24614884 -0.33655372 -0.14042939
-0.3064704 -0.37798363 -0.101585254 0.24020073 -0.12947893 0.18140882 0.046671912 0.019120334
-0.3988459 0.29826865 0.25818655 -0.04461668 0.65028775 -0.59563285 -0.20232174 0.10663515
-0.046395343 0.3040962 0.4243823 0.09797072 -0.057473727 0.16930032 0.12943637 -0.035633687
-0.16358261 -0.23800892 -0.6778615 -0.44064057 0.24891166 -0.40626 0.12796897 -0.12567843
-0.0010723522 0.15601791 0.35650635 0.25564322 0.22042188 -0.31451383 0.21011373 -0.4641339
0.0982042 -0.3289398 -0.1693984 -0.15450975 -0.04813472 -0.7099066 0.15563291 0.28850722
-0.13169023 0.011546711 0.16514781 0.44512603 -0.14985317 -0.2306451 0.50474393 0.046687316
-0.17538963 0.34697217 0.26614574 -0.3102979 0.5830862 -0.13931714 -0.26825005 -0.06442399
0.24779795 0.09747748 0.17210858 -0.000109928726 1.050342 -0.07761635 0.3394184 -0.36042726
0.13596715 -0.12314122 0.12190176 -0.37171054 0.4741559 0.06487581 0.02790192 -0.020076755
0.062210713 0.11062861 -0.1043648 0.0045220875 -0.3159671 -0.9306191 -0.14701812 0.17077011
0.21284966 -0.09833562 -0.5280312 0.060725536 0.0269254 0.09342122 0.14587471 0.13620737
-0.057568 0.13250396 -0.41527364 0.19584467 0.024558935 -0.026376244 0.48106635 0.33895224
-0.1285341 0.07606469 -0.29980892 0.30255857 -0.59642386 -0.07436575 -0.054605436 0.50417155
0.1074945 -0.40450558 -0.39679283 0.484789 0.23436712 0.36050585 0.073402636 -0.1192765
0.27859187 -0.09081131 0.027013587 -0.2514542 0.09957628 -1.0875924 0.0122946 0.22164074
0.08880502 0.4317667 -0.13502909 0.26658154 0.084407546 -0.56163627 0.28586027 -0.9920534
0.21713969 0.52899235 -0.15686375 -0.004243173 0.23521899 0.27850187 0.30460715 0.35860673
-0.045819987 -0.044850986 0.24484268 -0.122058935 0.0075082 -0.40719944 0.06391479 0.20093967
0.3352269 0.31333503 0.03721665 -0.33877397 -0.014975719 0.2693552 -1.2475963 -0.3755392
-0.4680264 0.36291188 0.26075813 -0.65107024 -0.08751052 -0.080312856 -0.09549797 0.07824698
-0.4933544 0.25743693 0.3486745 -0.16815227 0.0029400033 -0.4528373 -0.0017247646 -0.07609218
00000000: 06e0 c6be 87d7 aebe f061 ab3d a2da c93d
00000010: cac3 363e ee28 e9bd 4180 443e 561f 16bd
00000020: 72ba c73e 4745 ce3e 134d 193e a603 44be
00000030: 72ad f93d ef94 bbbd 025f 9bbd 4cf7 08bf
00000040: a737 b73c 6ab6 5b3e 2998 913d 48d0 1d3e
00000050: 9ce1 0c3e eb7d 0d3e ccd6 fdbd ac54 20bf
00000060: b54f 793e fa07 5cbe 54d3 12bf 889f 353e
00000070: 20b2 75be 31fe 6e3e 117f 8c3e ab48 87bd
00000080: 5c74 b13e f4dd 993e 43bc 24bf b24f 643e
00000090: 3366 c53e b28c 363d da27 743e 7198 cb3e
000000a0: 5581 55be 2919 303e 917c 34be 6797 e4bd
000000b0: e0bd 463d 5f4d 1fbe 5b2a 763e 1cd4 053f
000000c0: 9a05 c1be 089c dbbe 1cbb 053e 53b7 bbbe
000000d0: cafb c03e 3eb6 3dbe 2773 b3be 7b3e 1fba
000000e0: e459 d83d 300f a13d 87bd 813d 4ac4 a63e
000000f0: d6ef c73e 7b2c 30bc d807 09be 5304 a53d
00000100: 2f34 17be 42f5 393d 39a2 033e 5f3b e43c
00000110: 95bf 9ebe 6e42 843e f08b f3bd e553 26be
00000120: a516 b4bc 4f98 b83c 7023 1cbe 86fc 0e3f
00000130: 2f58 733c 710e 7cbe c550 acbe b9cc 0fbe
00000140: b0e9 9cbe 1287 c1be ee0b d0bd 2ef7 753e
00000150: 2096 04be 3cc3 393e 0c2b 3f3d 3fa2 9c3c
00000160: 8835 ccbe abb6 983e 0731 843e fbbf 36bd
00000170: 4279 263f 657b 18bf 6e2d 4fbe 8863 da3d
00000180: 0b09 3ebd 7fb2 9b3e a348 d93e dfa4 c83d
00000190: 9269 6bbd 105d 2d3e f88a 043e a1f4 11bd
000001a0: 3382 27be 9cb8 73be 5588 2dbf a49b e1be
000001b0: b3e2 7e3e 5001 d0be 4c0a 033e d9b1 00be
000001c0: 2b8e 8cba 29c3 1f3e 0088 b63e abe3 823e
000001d0: 46b6 613e f507 a1be 0e28 573e f5a2 edbe
000001e0: 491f c93d cc6a a8be c676 2dbe ce37 1ebe
000001f0: ea28 45bd 70bc 35bf 3c5e 1f3e 38b7 933e
00000200: ced9 06be 6b2e 3d3c 821c 293e 8fe7 e33e
00000210: 1c73 19be 3b2e 6cbe e636 013f 333b 3f3d
00000220: 5799 33be 56a6 b13e 4144 883e 5edf 9ebe
00000230: 2345 153f 27a9 0ebe 1258 89be baf0 83bd
00000240: bfbe 7d3e 46a2 c73d 3b3d 303e 8989 e6b8
00000250: 9b71 863f 52f5 9ebd 40c8 ad3e ec89 b8be
00000260: f93a 0b3e 7731 fcbd a1a7 f93d d850 bebe
00000270: 90c4 f23e 9cdd 843d 9192 e43c 0278 a4bc
00000280: a9d0 7e3d 4191 e23d 36bd d5bd 052e 943b
00000290: 71c6 a1be 0e3d 6ebf eb8b 16be 5cde 2e3e
000002a0: 43f5 593e 2f64 c9bd 0d2d 07bf 57bb 783d
000002b0: a892 dc3c a053 bf3d 2e60 153e f279 0b3e
000002c0: 6ccc 6bbd 1eaf 073e bf9e d4be 818b 483e
000002d0: d22f c93c fe12 d8bc 544e f63e 268b ad3e
000002e0: 719e 03be cec7 9b3d 8e80 99be f5e8 9a3e
000002f0: 3caf 18bf 124d 98bd f3a9 5fbd 6311 013f
00000300: 1426 dc3d 5b1b cfbe 6e28 cbbe 4436 f83e
00000310: effd 6f3e 3994 b83e 1f54 963d 3d47 f4bd
00000320: 98a3 8e3e 48fb b9bd 994b dd3c 9bbe 80be
00000330: a6ee cb3d 3a36 8bbf 4a6f 493c caf5 623e
00000340: 68df b53d 8610 dd3e 1145 0abe 607d 883e
00000350: dddd ac3d 65c7 0fbf 475c 923e 36f7 7dbf
00000360: de59 5e3e 0b6c 073f e4a0 20be 510a 8bbb
00000370: 3fdd 703e cc97 8e3e 78f5 9b3e 4d9b b73e
00000380: bdad 3bbd abb5 37bd 0ab8 7a3e 09fa f9bd
00000390: 5907 f63b 727c d0be c2e5 823d 21c3 4d3e
000003a0: dca2 ab3e 736d a03e 7c70 183d c873 adbe
000003b0: b85c 75bc ede8 893e 3cb1 9fbf ad46 c0be
000003c0: 28a1 efbe 96cf b93e 1782 853e 8aac 26bf
000003d0: b738 b3bd 117b a4bd 7194 c3bd f43f a03d
000003e0: f398 fcbe c6ce 833e 7785 b23e 1c30 2cbe
000003f0: 12ad 403b 4ada e7be 7f11 e2ba 38d6 9bbd

dense2.bias f4 [40]
0.23832949 0.32169002 -0.028706888 0.27676323 0.1797054 0.29551533 0.12649424 -0.057296403
0.2639675 0.23864427 0.28093955 -0.12792118 0.03176476 0.14123145 0.057935365 0.041531492
0.03733469 0.061464716 0.289091 0.36046857 0.021088699 -0.16487838 0.18657635 0.0673051
0.25750348 0.07581547 -0.10348958 -0.21175095 -0.084916174 -0.123445615 -0.13210987 -0.08860056
-0.02778454 0.021775303 0.15691389 -0.22229612 0.18931569 -0.06845067 0.012150845 0.15209688
00000000: a50c 743e 8eb4 a43e b52a ebbc e9b3 8d3e
00000010: b104 383e c94d 973e b587 013e a2af 6abd
00000020: c026 873e 2a5f 743e 4fd7 8f3e c5fd 02be
00000030: c41b 023d fa9e 103e a24d 6d3d ed1c 2a3d
00000040: 43ec 183d 6dc2 7b3d bc03 943e 568f b83e
00000050: 35c2 ac3c e1d5 28be df0d 3f3e 42d7 893d
00000060: 7fd7 833e 2445 9b3d 58f2 d3bd 3ed5 58be
00000070: 88e8 adbd 0ed1 fcbd cf47 07be 3674 b5bd
00000080: 679c e3bc 1f62 b23c 09ae 203e 98a1 63be
00000090: f9db 413e dd2f 8cbd 5614 473c 49bf 1b3e

dense3.weight f4 [30, 40]
0.38848972 0.35812873 -0.2608174 0.037961204 -0.097862035 0.12187617 -0.06399675 0.08382085
0.394412 0.06841879 0.3183564 -0.26378685 -0.26822758 -0.10997565 -0.16474609 0.24786091
0.399176 0.06332039 0.07677165 0.37537867 0.5530228 -0.3584855 0.30264357 0.0345547
-0.21857256 -0.6310517 -0.10528876 -0.23635645 0.26634002 0.08214162 0.24049968 0.11464141
-0.10943569 -0.26204234 0.10986913 0.014234105 -0.23233373 0.102100044 0.03960179 -0.25208896
0.09962273 -0.12749872 0.5792417 0.16033567 -0.2651774 0.38041002 0.02341476 0.12423174
0.18547517 -0.38882166 0.15971413 -0.11851488 0.67088825 -0.22107306 0.10761907 0.14111425
0.58153343 -0.117059305 -0.32459503 0.32691014 0.1812175 0.0049845404 0.40508175 -0.289726
0.08146844 -0.02925051 -0.3319795 -0.13543782 -0.038851235 0.1360868 -0.30996713 -0.2058121
0.39068606 -0.20636474 -0.044324268 0.1382538 0.119880244 0.042737667 0.17396337 0.2138895
-0.01123145 -0.016807878 -0.17231357 -0.111653484 -0.06733436 0.122081004 -0.177127 -0.23212066
-0.22638072 -0.26112863 -0.3267825 0.07685047 0.09083634 0.07915291 -0.08088654 -0.47694683
-0.0131717175 -0.087997265 0.030095046 -0.30057412 -0.16346398 0.13044433 -0.29010925 0.20823818
0.29865935 -0.116188936 -0.014423439 -0.1685447 -0.12234545 0.0038366497 -0.47518137 -0.18083785
0.2880591 0.0308782 -0.41277984 0.1407213 0.21195266 -0.02359362 -0.36685434 0.36067766
-0.40630352 -0.14611524 0.4926326 0.050997198 -0.346592 0.061003745 0.10096121 -0.05142849
-0.27079904 0.12840019 -0.2777818 0.78253347 -0.47020632 -0.0037875448 0.07984132 -0.3517308
-0.069189936 -0.018879972 0.27648732 -0.20391273 -0.37266058 -0.019078692 -0.06493768 -0.09196443
0.8312039 0.4204788 0.091749765 0.018871045 -0.10565309 -0.13688907 -0.14158587 0.14677356
0.20816803 0.35270375 -0.1398063 -0.03154085 0.24673526 -0.19146536 0.28240803 0.3878007
-0.0835285 0.22452565 0.41166335 0.49230424 0.05606303 0.32500392 -0.0050175022 -0.024427993
0.049292304 -0.338718 -0.089594185 0.24921298 0.25725532 0.28348866 -0.12242142 0.39314163
0.31023747 -0.033260185 0.018077914 0.16594793 0.2190313 -0.01073332 0.12064094 0.16336377
0.47884014 -0.5465384 -0.62545025 -0.27768487 -0.38887313 -0.06312681 -0.32767698 -0.31207052
0.37899244 -0.07002241 -0.04871913 0.47599494 -0.1184789 -0.118760414 -0.2347313 0.5170143
0.16224433 -0.113855116 -0.46929848 0.4406631 -0.4044443 0.1144763 0.034835663 0.23795626
-0.104570866 -0.19544046 0.032709092 0.7989789 -0.33145806 0.33415776 0.19381396 0.27819702
0.5475494 0.17733745 0.3518595 -0.030148612 0.28751972 0.19403051 0.29780215 0.15948264
0.26837492 -0.6051957 -0.31806698 -0.48263747 0.17594537 0.18822831 0.023047358 -0.3198455
0.3574224 0.12543878 -0.2349957 -0.020472772 0.2631979 0.030640654 -0.35787717 0.078687645
0.3621622 0.010341103 0.020343525 -0.017691283 -0.40923908 0.3724367 0.38779017 -0.15686196
0.32260233 0.5092194 0.28351665 -0.43498054 0.56906676 -0.13623285 0.39178643 -0.26123095
00000000: 20e8 c63e a65c b73e dc89 85be 357d 1b3d
00000010: e46b c8bd 379a f93d ba10 83bd 44aa ab3d
00000020: 5ff0 c93e 271f 8c3d 9cff a23e 120f 87be
00000030: 2055 89be ea3a e1bd 33b3 28be 40cf 7d3e
00000040: cc60 cc3e 1fae 813d 743a 9d3d a231 c03e
00000050: e792 0d3f 698b b7be 19f4 9a3e 3b89 0d3d
00000060: 7cd1 5fbe 9b8c 21bf a2a1 d7bd 6d07 72be
00000070: b85d 883e de39 a83d 8c45 763e 1ec9 ea3d
00000080: d21f e0bd 6a2a 86be 1103 e13d 2a36 693c
00000090: e5e8 6dbe d419 d13d 7d35 223d ce11 81be
000000a0: 0007 cc3d 068f 02be 2f49 143f 092f 243e
000000b0: 55c5 87be 1ac5 c23e 50d0 bf3c 366d fe3d
000000c0: 34ed 3d3e a213 c7be 1a8c 233e eeb7 f2bd
000000d0: 55bf 2b3f fa60 62be 6367 dc3d 4180 103e
000000e0: 60df 143f cabc efbd 5231 a6be c460 a73e
000000f0: 1591 393e 5b55 a33b e066 cf3e f756 94be
00000100: edd8 a63d c49e efbc 38f9 a9be 36b0 0abe
00000110: 7922 1fbd 575a 0b3e 03b4 9ebe 68c0 52be
00000120: 0108 c83e 4751 53be 5d8d 35bd 6792 0d3e
00000130: c683 f53d b10d 2f3d 7423 323e d905 5b3e
00000140: 1e04 38bc adb0 89bc f872 30be 95aa e4bd
00000150: 99e6 89bd 9b05 fa3d c860 35be 0ab1 6dbe
00000160: 59d0 67be a7b2 85be 0950 a7be c763 9d3d
00000170: 6708 ba3d ec1a a23d d8a7 a5bd 6032 f4be
00000180: 30ce 57bc e937 b4bd e389 f63c dae4 99be
00000190: 1a63 27be 3393 053e 3389 94be 643c 553e
000001a0: e1e9 983e 77f4 edbd 4a50 6cbc fb96 2cbe
000001b0: 4090 fabd 4d70 7b3b f94a f3be 8f2d 39be
000001c0: 7b7c 933e 47f4 fc3c e157 d3be 3f19 103e
000001d0: 1e0a 593e 6847 c1bc 55d4 bbbe beaa b83e
000001e0: 0407 d0be 3c9f 15be 573a fc3e 70e2 503d
000001f0: 8274 b1be 10df 793d c0c4 ce3d aea6 52bd
00000200: 2ca6 8abe 577b 033e 6b39 8ebe 1d54 483f
00000210: e2be f0be 7538 78bb d983 a33d 0f16 b4be
00000220: 74b3 8dbd 2caa 9abc bf8f 8d3e 80ce 50be
00000230: 5ecd bebe eb4a 9cbc 0cfe 84bd d957 bcbd
00000240: c7c9 543f ff48 d73e 4de7 bb3d 7397 9a3c
00000250: a660 d8bd a62c 0cbe e3fb 10be cf4b 163e
00000260: 002a 553e 9695 b43e 6229 0fbe fa30 01bd
00000270: 2ba8 7c3e 7f0f 44be c997 903e d08d c63e
00000280: fd10 abbd 0dea 653e 8ac5 d23e 4d0f fc3e
00000290: 59a2 653d ea66 a63e dc69 a4bb 371d c8bc
000002a0: bae6 493d 726c adbe 287d b7bd b031 7f3e
000002b0: f8b6 833e 6d25 913e 15b8 fabd dc49 c93e
000002c0: 72d7 9e3e d53b 08bd 2218 943c 41ee 293e
000002d0: be49 603e cfda 2fbc 9912 f73d d548 273e
000002e0: 892a f53e f1e9 0bbf 821d 20bf b62c 8ebe
000002f0: 611a c7be a148 81bd 47c5 a7be b5c7 9fbe
00000300: 4c0b c23e e967 8fbd b68d 47bd 9cb5 f33e
00000310: 11a5 f2bd a938 f3bd 675d 70be 0d5b 043f
00000320: 6123 263e df2c e9bd e447 f0be 989e e13e
00000330: 5313 cfbe 8d72 ea3d d7af 0e3d ceaa 733e
00000340: 4029 d6bd 8b21 48be f8f9 053d e289 4c3f
00000350: dfb4 a9be ba16 ab3e 2b77 463e d76f 8e3e
00000360: 332c 0c3f f397 353e ee26 b43e 39fa f6bc
00000370: c935 933e efaf 463e 8679 983e 6b4f 233e
00000380: 7068 893e 1bee 1abf add9 a2be 421c f7be
00000390: 062b 343e ecbe 403e d0cd bc3c cac2 a3be
000003a0: 1200 b73e 0673 003e b6a2 70be 84b6 a7bc
000003b0: e0c1 863e 1c02 fb3c ad3b b7be fd26 a13d
000003c0: 536d b93e bb6d 293c 77a7 a63c 4fed 90bc
000003d0: c987 d1be 06b0 be3e 6f8c c63e 6ca0 20be
000003e0: 222c a53e 345c 023f 1829 913e c5b5 debe
000003f0: 5cae 113f a080 0bbe 3b98 c83e 10c0 85be

dense3.bias f4 [30]
0.36767593 0.33692834 -0.17975627 0.033404756 0.097808704 0.037365485 0.23084228 -0.41924137
-0.007423334 -0.100757636 0.29245687 -0.1929464 -0.111994475 0.34364364 -0.0527715 0.43287253
-0.04778459 -0.099657245 0.094832085 0.22887592 0.032594796 -0.29251742 0.19205812 -0.13737983
-0.041434214 0.04956719 0.18322922 0.32133272 0.4882893 -0.19247822
00000000: 0540 bc3e df81 ac3e 0712 38be 6dd3 083d
00000010: ee4f c83d 8d0c 193d eb61 6c3e cea6 d6be
00000020: 703f f3bb 055a cebd e8bc 953e be93 45be
00000030: 5c5d e5bd 0ff2 af3e ee26 58bd 78a1 dd3e
00000040: c6b9 43bd 1919 ccbd 5337 c23d 735e 6a3e
00000050: 1f82 053d d8c4 95be e2aa 443e 4cad 0cbe
00000060: ecb6 29bd f706 4b3d 71a0 3b3e b985 a43e
00000070: 0e01 fa3e 0319 45be

dense4.weight f4 [10, 30]
0.007246905 -0.5654775 -0.3279595 -0.513745 -0.4752996 0.20728353 -0.012091614 -0.53456175
0.35205382 0.46141368 -0.022368519 -0.11394656 0.26863024 -0.13104047 -0.23123395 0.089529306
0.20777369 -0.54256034 -0.08446758 -0.15691043 -0.06653439 0.2865401 -0.18774886 -0.17893915
-0.70247674 0.29094046 -0.50485253 0.012591743 -0.35940757 -0.14607517 -0.15462129 0.33662707
0.37421513 0.42736745 0.47579002 0.42121655 -0.3131516 -0.8016973 -0.10764873 0.39888784
0.29573038 0.11288597 -0.038001534 -0.8663503 -0.24842873 -0.35271776 0.34544417 0.11762756
-0.5819347 0.27464107 -0.42510322 -0.35927355 -0.7669068 -0.11953766 0.49083155 -0.08428777
-0.1279165 -0.546082 -0.10207353 -0.43455806 0.32895985 0.1131738 -0.020871107 -0.6394141
0.14453533 0.10907134 -0.31927004 0.24505498 -0.0772162 -0.37204346 -0.01529224 -0.122835234
-0.7099152 0.4515926 -0.18387084 -0.7929229 -0.09006966 0.0705339 0.053236272 0.30143374
-0.37782156 0.07768434 0.8056397 -0.044825844 0.05869185 0.22146764 0.012833938 -0.2568219
-0.6311712 0.34596625 -0.30826277 0.2929148 -0.4360347 -0.2392743 -0.1456217 -0.53044236
0.28599176 0.17409176 -0.2640897 0.016609702 0.23335515 -0.096144095 0.04569094 -0.066598214
-0.13054354 0.11775053 -0.17153385 0.2203568 -0.45259196 -0.04692677 0.20843832 0.023406971
-0.10202078 -0.1626621 0.3159482 -0.29276758 -0.09236839 -0.55642915 -0.45658934 0.2840527
-0.09703836 -0.15468283 -0.02305024 0.030107887 0.19524212 0.30819267 -0.22833961 -0.8050573
-0.6882194 0.11472554 -1.0904253 -0.17194095 0.2191484 0.15038578 -0.2054923 0.15709487
-0.014563387 -0.48270574 0.12811355 -0.45535186 0.23055111 -0.053413324 0.66738945 -0.10815012
-0.10522864 -0.48889366 0.25112593 0.055738594 -0.35704634 -0.58658665 0.1266052 0.10753072
-0.18140462 0.04673413 -0.14954287 -0.8210483 0.09298791 0.033451606 -0.063650474 -0.8531543
0.5267832 -0.0046919202 0.113886975 -0.19491845 -0.03778285 0.02804512 -0.06343456 0.087874055
-0.4726623 -0.044034068 -0.06821765 -0.6304004 0.03438169 -0.3407417 -0.68966174 -0.23535709
0.17858194 0.28374192 0.5104432 0.13901465 0.27506527 0.13848105 -0.082034886 -0.106159516
0.35225978 -0.021186838 -0.16632698 0.19098534 0.21301273 -0.05665603 0.0051030596 -0.11279479
0.44032001 0.22453038 0.1680131 0.19709165 -0.682712 -0.2587121 0.075446025 0.062597126
-0.7726288 -0.48357973 -0.3184086 -0.097019486 -0.17946884 -0.51329756 -0.7329323 0.09499772
0.18437411 -0.63690853 -0.5576645 -0.21060798 -0.44979602 0.26238453 -0.29213837 -0.0424963
-0.51877546 0.44617864 -0.8063162 -0.3446866 -0.3933064 -0.03476236 0.16201879 -0.4412908
-0.09928784 -0.36588496 0.39299628 0.062062122 0.3043242 -0.5634505 -0.035926644 0.13325398
-0.2401075 0.06885945 0.31577465 0.363486 0.20599915 -0.02129798 -0.14371158 0.081125475
0.2763129 0.27453986 -0.28309855 -0.36733627 -0.16322438 0.1258329 0.27198917 -0.013947392
-0.042800594 -0.35792735 -0.6126407 -0.0388385 -0.80228573 -0.83217174 -0.15439044 0.11767701
00000000: 7277 ed3b 22c3 10bf 4fea a7be cb84 03bf
00000010: 785a f3be 2242 543e e81b 46bc 0ad9 08bf
00000020: 6640 b43e 6a3e ec3e 2f3e b7bc d05c e9bd
00000030: e789 893e 792f 06be 98c8 6cbe 245b b73d
00000040: a0c2 543e 3ce5 0abf 57fd acbd 21ad 20be
00000050: 2f43 88bd 62b5 923e 3d41 40be d33b 37be
00000060: 84d5 33bf 26f6 943e 043e 01bf 994d 4e3c
00000070: 4504 b8be bb94 15be 0b55 1ebe 625a ac3e
00000080: 2099 bf3e e8cf da3e c09a f33e b2a9 d73e
00000090: 6855 a0be 093c 4dbf f076 dcbd 073b cc3e
000000a0: f969 973e c230 e73d 7fa7 1bbd 22c9 5dbf
000000b0: 1a64 7ebe 6c97 b4be 0fde b03e b8e6 f03d
000000c0: acf9 14bf c19d 8c3e 21a7 d9be b4f2 b7be
000000d0: 0154 44bf 29d0 f4bd 464e fb3e 119f acbd
000000e0: 8bfc 02be 08cc 0bbf ed0b d1bd 657e debe
000000f0: 6d6d a83e aac7 e73d e2f9 aabc a4b0 23bf
00000100: 1201 143e cb60 df3d 5d77 a3be b1ef 7a3e
00000110: 8723 9ebd 7b7c bebe 4e8c 7abc 0a91 fbbd
00000120: 01bd 35bf 2537 e73e a348 3cbe fffc 4abf
00000130: 7176 b8bd 1474 903d 470e 5a3d 8655 9a3e
00000140: d471 c1be f818 9f3d 673e 4e3f 4e9b 37bd
00000150: de66 703d 6ac8 623e 7045 523c 297e 83be
00000160: 7094 21bf 7d22 b13e 9ed4 9dbe eef8 953e
00000170: f13f dfbe 5204 75be db1d 15be 12cb 07bf
00000180: 836d 923e 1c45 323e c436 87be 1211 883c
00000190: a7f4 6e3e 32e7 c4bd 6c26 3b3d a564 88bd
000001a0: 35ad 05be 3127 f13d 92a6 2fbe 37a5 613e
000001b0: 22ba e7be 4936 40bd db70 553e fabf bf3c
000001c0: 45f0 d0bd e590 26be f6c3 a13e a2e5 95be
000001d0: a32b bdbd 2472 0ebf 14c6 e9be 5b6f 913e
000001e0: 0cbc c6bd 2d65 1ebe dbd3 bcbc d1a4 f63c
000001f0: 8ded 473e 6ecb 9d3e dcd1 69be 3c18 4ebf
00000200: 262f 30bf 39f5 ea3d 0e93 8bbf 4a11 30be
00000210: 7068 603e bbfe 193e 936c 52be 7add 203e
00000220: 469b 6ebc 3525 f7be 3330 033e e123 e9be
00000230: 9715 6c3e eec7 5abd 09da 2a3f cf7d ddbd
00000240: 1d82 d7bd 4550 fabe 9493 803e 274e 643d
00000250: c7ce b6be 8b2a 16bf cba4 013e 1139 dc3d
00000260: 22c2 39be 496c 3f3d c421 19be 3930 52bf
00000270: 7270 be3d 8d04 093d 2e5b 82bd 5268 5abf
00000280: 44db 063f aebe 99bb 933d e93d b498 47be
00000290: 31c2 1abd e1be e53c fbe9 81bd 50f7 b33d
000002a0: cb00 f2be 115d 34bd b2b5 8bbd ec61 21bf
000002b0: d1d3 0c3d b275 aebe ac8d 30bf 7301 71be
000002c0: 2fde 363e 9f46 913e 68ac 023f db59 0e3e
000002d0: 5bd5 8c3e facd 0d3e e801 a8bd 296a d9bd
000002e0: 655b b43e 0590 adbc 9f51 2abe a991 433e
000002f0: 0220 5a3e 2710 68bd 9137 a73b f400 e7bd
00000300: a071 e13e 4beb 653e a00b 2c3e 65d2 493e
00000310: 37c6 2ebf ea75 84be 7283 9a3d ec32 803d
00000320: 00cb 45bf c397 f7be 7406 a3be 27b2 c6bd
00000330: aec6 37be 7867 03bf 74a1 3bbf 2a8e c23d
00000340: 91cc 3c3e 700c 23bf 1ac3 0ebf 9ea9 57be
00000350: aa4b e6be 4457 863e 2993 95be 9a10 2ebd
00000360: 78ce 04bf 8771 e43e bd6a 4ebf c37a b0be
00000370: 755f c9be fa62 0ebd 41e8 253e def0 e1be
00000380: 6c57 cbbd 4655 bbbe cf36 c93e da34 7e3d
00000390: 62d0 9b3e 4b3e 10bf d127 13bd bb73 083e
000003a0: bede 75be 2f06 8d3d 37ad a13e d61a ba3e
000003b0: 71f1 523e 1a79 aebc 2129 13be 1d25 a63d
000003c0: e278 8d3e 7d90 8c3e 4bf2 90be 8013 bcbe
000003d0: 4b24 27be 57da 003e 2a42 8b3e 9a83 64bc
000003e0: ad4f 2fbd 4142 b7be 05d6 1cbf 1e15 1fbd
000003f0: 9962 4dbf 3509 55bf 8718 1ebe a500 f13d

dense4.bias f4 [10]
-0.1738624 0.14592749 -0.20951557 -0.07336552 -0.10186394 0.008183844 -0.056647014 -0.1839775
0.05775771 0.048636887
00000000: fc08 32be 046e 153e 408b 56be a940 96bd
00000010: 0b9e d0bd 8815 063c b306 68bd 9964 3cbe
00000020: 5993 6c3d 7937 473d
